consumptionV1.pt (torch, 975961 bytes, 26 tensors)

rnn.weight_ih_l0 f4 [192, 168]
00000000: 8202 38bd 642f 7c3c 9141 d23d 5391 a9bd
00000010: 7232 79bd ea6e 59bd 99e4 86bd e9cd 0b3d
00000020: 632a 943d 51f1 a7bd 9457 4c3c 3160 b8bd
00000030: 9f6b c73d 3c7c 0fbe 8b1f fcbd da1e dcbd
00000040: c914 6cbc c709 8dbd 0c22 033d 6f4e a03c
00000050: a2b8 973b f141 d13d cf62 333c d874 a23c
00000060: 99f4 e5bd cc2e 3d3d 9f5f 8bba 80b7 623d
00000070: ca4e d1bd 114f 04bd fa60 a43c 0f84 5a3c
00000080: e30d 583d b674 afbb b52a cabc 0255 fdbc
00000090: f0cd 893d 80e8 d53d 581d f83c c9d3 aa3d
000000a0: b408 8c3d e900 a7b8 400e 903c f902 ab3d
000000b0: 019c af3d 0660 ddbd b03e c23d ed1d 993d
000000c0: e709 6cbd f9e8 a33d 1e15 73bd 0242 033d
000000d0: 45b9 8dbd f0c7 4ebd eb56 03be 5936 cb3d
000000e0: e7a7 863d 6228 a6bc ec75 bcbd f06f 1a3d
000000f0: c767 39bd c0fd 82bd 9795 d1bd 5c1a c43c
00000100: 5bff de3c 8e99 d53c b103 a3bd 194b a6bd
00000110: d175 9b3d 6cf7 01be e291 1c3c 4c10 aebd
00000120: 3f33 c4bd 8bae ecbd 8b0d 2c3d 708b 173d
00000130: 3ebd 72bd b211 7fbd 31d5 303d 1a8d d1bd
00000140: 2431 bcbd 3008 39bd 2e2f 09be 0acb bd3d
00000150: 7bd4 aabd 41d2 82bd 3df4 8abd fd57 a0bc
00000160: 832e fcbb 9d0f 97ba 049d 26bd 5827 b63d
00000170: 8ccb d03d 1a19 923d ed11 c83d 864b 2f3d
00000180: fec5 9e3d 8ccd fcbd b2f1 d8bd d120 a8bc
00000190: 7e33 9ebd 5a20 3d3d e06f a9bd cac6 edbc
000001a0: 1529 00be 90dc 843a f65f c23c 8ef8 863d
000001b0: 8e12 e63c 03ff 9dbd 7b40 bcbd c9b1 cebc
000001c0: 6c8e 55bc 9d3d 283d eb5b d9bd ff3b 0cbe
000001d0: c279 bdbd 18c3 813d a575 07be 0028 9fbd
000001e0: 4209 4b3d d62e ce3d a3d1 16bd 5732 063d
000001f0: 31ca f9bd eb67 753d 08dd 223d a491 8b3c
00000200: 3b0f bfbd ce0e ab3d be84 67bb a37b 3dbd
00000210: d519 66bd 3540 42bd 191b a43d f87b a2bc
00000220: 46b1 053d 36cd aabc c919 93bd 605e 343b
00000230: f7fc 00be bb4b cdbd 25b5 2ebd bbf5 0ebe
00000240: 7de6 ba3d dde4 e7bd f8a3 113d 3e70 8e3d
00000250: 3289 abbd 3389 a93d 8b84 debd 68d8 11bb
00000260: 4568 d33b 5682 96bd 3a4d b83d b40a 2e3d
00000270: aeba dd3d e0fb c43d 5287 e9bd fc08 f83c
00000280: 4a00 953c 51a9 ab3b e1cc 63bd 132f 81bd
00000290: c1d5 9fbd 63fd 5e3c 0fe0 8d3d 4117 d13d
000002a0: 43bf 0ebd d315 943d dee8 b2bd 60c6 68bd
000002b0: 9639 a73d 5df5 203d dc8f 08be c962 55bd
000002c0: 2107 b73d f4c7 1e3d bef3 42bd cfd0 24bd
000002d0: 182b 95bd 9351 10bd 4c22 983c ab6c b83d
000002e0: 7507 6d3d 9608 dfbd 57d5 f4bd 45d9 d4bd
000002f0: 7791 a7bd 2303 a9ba 3743 023d 5324 303d
00000300: 97f0 9bbd 018c 19be a9b9 623c fe54 993d
00000310: ecc6 e6bc 6e51 a8bd be09 6b3d 5a1d ccbd
00000320: 15b3 05be 90f7 15be 82aa c5bd 5af1 9fbd
00000330: 985c 8ebd cc81 e6bc 0b2f 0cbe 08a5 c4bd
00000340: e18a 953d 4369 923d 44c0 b7bc 9f64 b3bd
00000350: 6c7f 073a cdac 663c a15c 893d 4ea8 bcbd
00000360: 6fb9 b5bd 4571 09be 79e3 ebbd 99f6 4d3d
00000370: 2f28 023d c3cc 88bd 5451 853d 9850 12be
00000380: 5b38 af3d 0061 a93b 3e60 6abd 069d ecbd
00000390: 26ba ffbd 56ac 85bd 3e47 d13d a1d5 99bc
000003a0: 4c81 d23c a325 d53d 3a9a dc39 a8c9 aa3d
000003b0: 6486 babd 023f c0bd e611 1dbe 0e0e 0c3d
000003c0: 451d 86bd 81b2 edbd 2791 6d3d 8da6 07bc
000003d0: c95c 8f3d 4a7d 0fbe daab 31bd 0f16 9e3d
000003e0: d5c9 03be b2e0 943d 3880 bebc 25ec 8b3d
000003f0: de51 9cbd ddbd 6a3d 5c00 a93d e4f2 a23d
-0.044924267 0.015392158 0.10266412 -0.082796715 -0.060839124 -0.05308429 -0.0658657 0.034131918
0.07234647 -0.08200324 0.012472052 -0.09002722 0.09737324 -0.14012235 -0.12310704 -0.10748072
-0.014409252 -0.068866305 0.03201489 0.01956865 0.0046301642 0.102176555 0.010948851 0.019831106
-0.11228294 0.046187207 -0.0010633356 0.05535078 -0.10220106 -0.032301966 0.020065773 0.013337149
0.05274762 -0.005354489 -0.024678567 -0.030924324 0.067287326 0.104447365 0.03028743 0.08341176
0.068375975 -7.96335e-05 0.01758492 0.08350176 0.08574677 -0.10809331 0.09484613 0.07476411
-0.05762663 0.080034204 -0.05934631 0.03204537 -0.06920103 -0.050483644 -0.12826125 0.09922475
0.065749936 -0.020282928 -0.09202179 0.03770441 -0.045264985 -0.06396055 -0.1023361 0.02393835
0.027221372 0.026074197 -0.079596885 -0.081197925 0.07590831 -0.1269204 0.009556266 -0.08499202
-0.09580087 -0.11556729 0.042005103 0.036998212 -0.059262507 -0.062272735 0.043172065 -0.10231991
-0.0918906 -0.045173824 -0.13396904 0.09267242 -0.08341309 -0.06387759 -0.06784866 -0.019573206
-0.0076959743 -0.0011525039 -0.040677086 0.08894223 0.101950735 0.07133694 0.09769044 0.042796634
0.07752608 -0.123438925 -0.10592975 -0.02052346 -0.07724665 0.04617343 -0.082732916 -0.029025454
-0.12515672 0.0010136534 0.023727398 0.06590377 0.02808502 -0.07714655 -0.09191986 -0.025231259
-0.013034444 0.041074384 -0.10613235 -0.13694762 -0.09251739 0.06336039 -0.13228472 -0.07771301
0.049569376 0.10067527 -0.03682102 0.03276285 -0.12196768 0.059913557 0.039761573 0.01703722
-0.09329077 0.08352433 -0.0035326923 -0.046260487 -0.05617698 -0.047424514 0.08012981 -0.019834504
0.032639764 -0.020849805 -0.071826525 0.0027522072 -0.12596498 -0.1002421 -0.04265322 -0.13960926
0.091259934 -0.11322949 0.035556763 0.06955002 -0.08375777 0.08278122 -0.10865124 -0.0022254232
0.006451639 -0.07349078 0.08999105 0.042490676 0.10826622 0.09618354 -0.114027634 0.030277722
0.018188614 0.00523869 -0.05561531 -0.06307807 -0.07804442 0.013610217 0.069275014 0.102095135
-0.03485037 0.07230725 -0.08735822 -0.05682981 0.081652805 0.039296497 -0.13336128 -0.052096162
0.089369066 0.03876491 -0.047595732 -0.040238198 -0.0728361 -0.035234045 0.018571042 0.09005102
0.05786844 -0.108903095 -0.11954754 -0.103930034 -0.08182042 -0.0012894612 0.031802382 0.04300339
-0.07614248 -0.14994814 0.01383821 0.07486914 -0.028171025 -0.082186565 0.057382338 -0.09966536
-0.13056596 -0.14645219 -0.096516624 -0.07809706 -0.069512546 -0.028138064 -0.1368982 -0.0960179
0.0730188 0.07148983 -0.022430547 -0.08759426 0.00051688286 0.014079285 0.06707121 -0.09211789
-0.08873259 -0.13422115 -0.11517996 0.050284002 0.031776603 -0.0667968 0.06509653 -0.14288557
0.08555671 0.005169034 -0.05722069 -0.11553387 -0.12486677 -0.06527011 0.102186665 -0.018778624
0.02569642 0.10407569 0.00042076578 0.08339244 -0.09107664 -0.09387018 -0.15338859 0.03419309
-0.065485515 -0.116063125 0.057999756 -0.008279455 0.07000119 -0.14012638 -0.04337678 0.07719051
-0.12869962 0.0726942 -0.023254499 0.0683215 -0.076328024 0.057309974 0.08252022 0.07956484

rnn.weight_hh_l0 f4 [192, 64]
00000000: 4096 623c 487b 783d b875 d23d 58dd a8bd
00000010: 2616 843d 18d3 68bd bcc9 8b3d 0017 963c
00000020: c27a bfbd c033 0e3c 7a9a ffbd 424a 913d
00000030: 9cf7 9fbd d09a 41bd 5240 923d 0092 bfbb
00000040: e059 a6bb c8f0 bc3d 50c8 aa3d c0d2 c6bb
00000050: 0066 f639 48cc 4a3d 0042 9ebb cc95 11bd
00000060: 78e9 b43c 9e59 ad3d 8018 e4bd e4f7 ff3d
00000070: 08ed e7bc f25f 8cbd 10fe d33d 1c8b 3d3d
00000080: fc83 043d 7004 fc3c 7c8a f33d b850 7fbd
00000090: a850 fb3c 3c57 8dbd cc37 c4bd 8cf6 c23d
000000a0: 4081 2fbd fcc0 263d 1856 b2bc 9a56 8d3d
000000b0: bcab 0bbd d4f0 f0bd dc02 59bd bada d1bd
000000c0: 10c2 4dbd ba08 ae3d b0c1 8cbd 3e60 9ebd
000000d0: 8ca8 ac3d 6065 3b3c 16f4 e33d 7013 5dbc
000000e0: ccc6 073d 70fc 90bd 78c3 b73c 94c8 e03d
000000f0: 6835 86bc 7a34 da3d cc68 463d 5a27 a3bd
00000100: 6adb abbd 6891 503d f41b c4bd 4085 04bc
00000110: 8644 e5bd 40e6 e43c a47a 44bd 945f 3ebd
00000120: 38d2 79bd 46d5 b2bd 8c21 0fbd f02f f6bd
00000130: 943f 6d3d d8a8 f8bd 0e7d a6bd f892 b83d
00000140: 549d 7a3d c083 19bd 8091 0b3c d831 86bc
00000150: d8fe 9dbd c0a7 103b 00cc 143d 30f8 a03d
00000160: b481 07bd c0e8 a4bc c86e 1d3d e0c7 85bb
00000170: 64a8 bcbd 224c cf3d 0804 be3d fc1c 023d
00000180: 8eb3 debd 6c03 1b3d 4c55 61bd 9048 953d
00000190: 6a3a cebd 005c 7cbd d4ea 003d 4e3c e5bd
000001a0: c896 353d 6431 95bd 14a0 403d a446 333d
000001b0: 0056 8a3d e403 b33d 786b 543d 08e9 883c
000001c0: 1876 c33d b006 b7bc 5039 4c3c c8c2 053d
000001d0: cc52 333d 0805 c33d a01f f7bd c0c2 6dbd
000001e0: 3ec4 f7bd 16ef bc3d 04bb 2bbd a414 e3bd
000001f0: f0ef df3c a2bd babd 4c60 063d 5477 1ebd
00000200: 9683 823d ac3e 52bd 706d 17bd 284e f83d
00000210: b044 b83c 58f6 b33d d44d d3bd 64c3 85bd
00000220: 8a72 b8bd ecb9 3cbd a8af 19bd d047 7ebc
00000230: 4eaf d63d 0663 e0bd 08a2 d03c 66c4 f73d
00000240: 1823 383d 74fb 53bd e8f3 e43c a04c 6e3d
00000250: b8a1 df3d ba03 b93d 7491 443d 6c95 63bd
00000260: 80b2 3fbd 8672 f5bd e0ef 363c 9c71 673d
00000270: fe44 ce3d 18ae e93c c898 77bd 9042 58bc
00000280: 3470 e8bd bea0 d13d c0a8 573c 8077 1abb
00000290: 6840 cb3d 52a0 9abd e853 c1bd 7ccf 303d
000002a0: 10a5 a13d 5a54 e1bd a00e 7e3d bec4 f23d
000002b0: 944c eabd a0c5 c53c 94bd aebd da6a a63d
000002c0: cc67 84bd 4a0a ee3d c0f3 473c b6ae d33d
000002d0: 5852 143d e8ef d03d 78af 41bd 24a3 003d
000002e0: fa09 d33d b07a f3bd a0da e73c b037 0c3d
000002f0: d6bd 953d d224 d43d 3c90 9ebd 7841 8abd
00000300: 5073 95bc aca2 c1bd 5041 c3bd a872 68bd
00000310: fee7 f8bd 600b afbc 1019 b2bd 00f0 d4bd
00000320: 783e 1bbd 5026 dabc 0833 9fbd 8cbb 58bd
00000330: 98ad 8fbd 5c49 c7bd b818 6abd 0064 95bb
00000340: 68cc d8bc 30b0 82bc c0bf 65bd 0070 f8b9
00000350: 80c5 833a e0cd a2bb a4c7 183d c052 ca3c
00000360: 84e1 c63d 9c46 d43d a8ff 8ebd f827 343d
00000370: 38fe 99bd 4090 7cbd 00be 9c3b ea02 cfbd
00000380: 0457 1cbd 00cb f1bb b87d d7bd 08e2 cfbd
00000390: 868c da3d fed2 95bd e0c9 5c3c a4dc 9d3d
000003a0: f876 f6bc 1cd0 db3d 9a92 b13d 2051 cfbb
000003b0: e0ec 613d 38b8 8bbd e056 033d 58e3 81bc
000003c0: 2056 153d f85a 78bd 7035 2fbd 4030 343d
000003d0: 06e8 d13d d0c5 cb3d 50bd 49bc 0040 4ebb
000003e0: 761b d6bd e297 c53d 1e0f a53d 648c 89bd
000003f0: 6029 eb3c f8d8 02bd 0cad c03d e852 173d
0.013829768 0.060664445 0.10276359 -0.08245343 0.06449537 -0.05684194 0.06825587 0.018321514
-0.09349586 0.00867933 -0.12480636 0.07094242 -0.078108996 -0.04726678 0.071411744 -0.005846262
-0.005076632 0.09225613 0.08338988 -0.006067604 0.00046996772 0.049511224 -0.004829645 -0.035543248
0.022083983 0.08464359 -0.111374855 0.12498453 -0.028311267 -0.068542376 0.10351193 0.046275243
0.032352433 0.030763835 0.11891648 -0.06233284 0.030678108 -0.06901404 -0.09580955 0.09519681
-0.04284787 0.040711388 -0.021769568 0.069012836 -0.034099326 -0.11764684 -0.052981243 -0.10246797
-0.0502339 0.08497758 -0.068728805 -0.077332005 0.08430585 0.011437744 0.1113054 -0.013493404
0.03314857 -0.07079399 0.022432074 0.10975757 -0.016382888 0.1065454 0.048439786 -0.0796649
-0.08391459 0.05091992 -0.09575644 -0.00808841 -0.111947104 0.027941823 -0.04796852 -0.04647787
-0.060991496 -0.08732085 -0.034944102 -0.12020862 0.05792196 -0.121415794 -0.08129321 0.09012407
0.061185196 -0.037479162 0.008518577 -0.01638119 -0.07714623 0.0022072643 0.036327362 0.07859838
-0.03308268 -0.020130515 0.038435727 -0.004082665 -0.092118055 0.10121943 0.09278113 0.031765923
-0.10874091 0.03784506 -0.055012986 0.07289231 -0.10069735 -0.061611176 0.03147395 -0.11193143
0.04433325 -0.07284811 0.047027662 0.04376854 0.067546844 0.087409765 0.051860303 0.01671268
0.09544009 -0.022342056 0.012464836 0.03265646 0.043780133 0.09522444 -0.12066579 -0.058047056
-0.12097977 0.092252895 -0.0419264 -0.11087921 0.02733609 -0.09118201 0.03280668 -0.03868802
0.06372754 -0.0513293 -0.036969602 0.12124282 0.02249369 0.08787221 -0.10317579 -0.065314084
-0.090062216 -0.046075746 -0.037521034 -0.015520051 0.104826555 -0.10956387 0.025467888 0.12098007
0.044955343 -0.051753476 0.027948335 0.058178544 0.10919517 0.09033914 0.047990277 -0.05556242
-0.04680109 -0.11984734 0.011165589 0.05650483 0.10071753 0.028525397 -0.060448438 -0.0131994635
-0.11349526 0.10235737 0.013162792 -0.0023569763 0.09924394 -0.0755011 -0.09439832 0.043166623
0.07892811 -0.11002417 0.062025666 0.11853932 -0.11440387 0.024142087 -0.08532253 0.08125849
-0.0646511 0.11623056 0.012204111 0.10336058 0.03621134 0.102020085 -0.04728648 0.031405583
0.10304637 -0.11888635 0.02830249 0.034232795 0.07311599 0.103585854 -0.07742354 -0.067507684
-0.018243462 -0.09454855 -0.09533942 -0.05674997 -0.12153624 -0.021367729 -0.086961865 -0.10397339
-0.03790137 -0.026629597 -0.07773405 -0.052913234 -0.07015532 -0.09730789 -0.05715248 -0.00455904
-0.026464656 -0.015953153 -0.05609107 -0.00047385693 0.0010053366 -0.00496839 0.037299767 0.024697661
0.097109824 0.1036503 -0.06982356 0.04398343 -0.075191915 -0.061661005 0.004783392 -0.10107978
-0.038168922 -0.007378936 -0.10522026 -0.10150534 0.10671334 -0.07315634 0.013475865 0.077080995
-0.030086026 0.10733053 0.0867054 -0.0063268095 0.055157542 -0.06822246 0.032065272 -0.015855476
0.03645909 -0.06063363 -0.04277557 0.043991327 0.10249333 0.09949839 -0.012313202 -0.0031471252
-0.104544565 0.0964811 0.08059524 -0.067162305 0.028706253 -0.0319452 0.09408006 0.0369443

rnn.bias_ih_l0 f4 [192]
00000000: 7d59 8ebd aeac 173c ca87 dc3b acac 003e
00000010: 8ed1 3f3d 39d3 adbd c08d 9c3c a227 483d
00000020: 3452 89bd b787 bbbd 7646 19be c844 093e
00000030: a614 fe3c 0ec8 c9bd 3e24 9abc b509 aa3d
00000040: e38e 1bbb 87db 9cbc 283f 7abd a494 96bd
00000050: e7aa 3e3c eb5d ca3d adab 99bd 69c9 12bd
00000060: cf0f debd dc4b c4bd f4dd b63d 37ca ae3d
00000070: ab32 b83d 6892 48bd d0ff aabd 12f6 b8bd
00000080: 210d a33d 7e64 8ebb c137 94bc 2bd4 123e
00000090: 0a92 08be defd 003e 9e5c 923c fa3f 26bd
000000a0: 1c84 063e 94d1 9a3d 018b 8b3a 72eb 4e3c
000000b0: b16a 773d 8c4f dc3d 345e eebd 80b6 aa3c
000000c0: 6063 63bd 750a ddbc 97ea b93d 37b5 e53b
000000d0: 185b 063e 9a98 adbd 16d1 823a 354e debd
000000e0: d7c2 57bd 8dbc 50bd 98cd 82bd ff35 66bd
000000f0: f61c debb aeeb 1d3d 6063 9cbd a9d6 943c
00000100: 7204 bbbd 8c66 c4bc 4c89 27bd fb9c 1e3d
00000110: 25ba 2dbd e505 b33d 4d87 f63d 7c00 97ba
00000120: ec08 033e b988 32bd 63ef 903c e809 40bd
00000130: 34b4 51bd 39d0 2e3d 9827 babd 3a68 873d
00000140: 5d13 10bd 7688 ad3d d69a bd3d 56c7 493d
00000150: 94fa ce3d 8a28 943b 8073 86bd 2529 1e3e
00000160: 7a6e 0b3e 2938 6f3c e696 f63a ef8d efbc
00000170: 96d6 cfbd 35b0 70bd dddb f6bd 83fb b33d
00000180: 4cdb e5ba 6425 b63d ad96 b93d d8a9 2a3e
00000190: 6289 1ebd da44 38bc 0ab5 013d 7473 d0bd
000001a0: fcd7 003e 80ed dabd a897 0b3e b7a1 b9bd
000001b0: a838 c8bd 3b6c 55bd 3c24 943d cd52 a6bd
000001c0: 4307 903d c9f0 853c acf6 5b3d 798b ae3c
000001d0: 05db 34bd a506 e3bc 1c4d ad3b b226 f93d
000001e0: 4911 8cbd 8c53 85bd 31e8 a83b 35fe 803d
000001f0: 5c50 5dbd 9ad5 103d 2d05 b33c ae83 0dbd
00000200: e28b 14bd 96a4 5f3d 9854 883d 88e7 523d
00000210: ed8b ee3d aed2 edbd c35b 073d 66af 09bc
00000220: aded bcbd 26d3 fcbc ca94 b0bb 309b 9bbd
00000230: b188 ad3d 6d69 17be ef80 57bd d6b0 febd
00000240: 1d85 c73d c37f e2bd a760 3a3d 9502 ac3c
00000250: aeeb db3d 25b7 5d3c f981 023e 37c4 70bc
00000260: 9b5b 6ebd 7255 02be 4a83 f7bc 2679 ac3b
00000270: c6a1 aabd 8893 89bb bf75 babc 7fa6 18bd
00000280: d0af aa3c 1f43 9cbd 205a 65bd 27e6 083c
00000290: d1c7 09be f83c 98bd 1c56 91bd 48a2 9b3c
000002a0: bc22 c73d 246b 03be 9e12 503d e84d 0ebe
000002b0: 72e7 f3bd f0c5 63bc b2ee e3bd e43c c73d
000002c0: 03a7 52bd ab34 e03c 96b5 cebd 0521 933d
000002d0: 92e1 e7bd 6ff4 983d ca05 94bd 70ea 6b3d
000002e0: 5994 13bd cca6 6abc 6ca3 9a3a b737 173e
000002f0: d01d 153d e666 9a3d ee73 d13c 1749 c2bd
-0.06950662 0.009257479 0.0067300545 0.12565869 0.046830706 -0.08487553 0.01911056 0.04886592
-0.06705132 -0.09156745 -0.14968285 0.13405144 0.031015705 -0.098526105 -0.01881611 0.08302633
-0.002373629 -0.019147648 -0.061095387 -0.0735257 0.011637426 0.09881195 -0.07503448 -0.03583661
-0.10842859 -0.095847815 0.08929053 0.08534663 0.08994039 -0.04896775 -0.083495736 -0.09031309
0.079614885 -0.0043454757 -0.018092992 0.14338748 -0.1333696 0.12596843 0.017866429 -0.040588357
0.13136333 0.07559505 0.0010646285 0.012629377 0.060404483 0.1075736 -0.116390616 0.020838976
-0.055514693 -0.026982525 0.090779476 0.007010128 0.13120687 -0.08476372 0.0009980525 -0.108547606
-0.052676048 -0.050961066 -0.0638687 -0.05620384 -0.0067783548 0.03855484 -0.07636142 0.018168764
-0.09131707 -0.02397468 -0.04090242 0.038723927 -0.04241385 0.08741359 0.12037525 -0.001152053
0.12796372 -0.04358742 0.017692273 -0.046884447 -0.051197246 0.042679045 -0.09089583 0.066116765
-0.035174716 0.084732935 0.09258048 0.049262367 0.10106388 0.004521434 -0.065649986 0.15445383
0.13616362 0.014600792 0.0018813282 -0.029242484 -0.10148351 -0.058761794 -0.12053654 0.087882064
-0.0017536669 0.088938504 0.09061942 0.16666353 -0.038705237 -0.011246884 0.031666793 -0.10178271
0.12582392 -0.10689831 0.13632071 -0.09064048 -0.09776431 -0.05210517 0.07233474 -0.08121262
0.07032635 0.016350167 0.05370204 0.02130674 -0.044154186 -0.02771313 0.005288733 0.12165584
-0.068392344 -0.06510076 0.0051546325 0.06298486 -0.054031715 0.035359956 0.021853054 -0.034549408
-0.036266215 0.05460032 0.0665676 0.051490337 0.116477825 -0.116124496 0.033046495 -0.008403635
-0.092250206 -0.030862402 -0.005388831 -0.07597959 0.084733374 -0.1478631 -0.052613195 -0.124360725
0.09742186 -0.11059525 0.04550233 0.020997325 0.10738312 0.013532435 0.12744893 -0.014695219
-0.05819283 -0.12727907 -0.03021397 0.0052634655 -0.08331637 -0.0041984953 -0.022761224 -0.037268158
0.020835787 -0.0762999 -0.055994153 0.008355654 -0.1345513 -0.07433504 -0.07096502 0.01899828
0.09723422 -0.1283384 0.050799005 -0.13896906 -0.11909379 -0.013902172 -0.11129512 0.09728411
-0.051428806 0.027368864 -0.100932285 0.07184032 -0.11322321 0.07468497 -0.07227667 0.057596624
-0.036030147 -0.014321994 0.0011797971 0.14767347 0.036405385 0.075391576 0.025567975 -0.09486597

rnn.bias_hh_l0 f4 [192]
00000000: b0ef 8f3c b1c6 6cbd 2e1f febd bc8a 37bd
00000010: 36e5 703d 31a6 0abe 12b3 7cbd 8f2a e23d
00000020: 257d e53c b857 153c ad27 023d 12e5 a23d
00000030: 7fb9 c1bd 112b 1f3d d476 12bc c6d7 ea3d
00000040: ba24 6d3c f913 493d e42e 9b3d 3f12 00be
00000050: b2bc c8bc 37ba 62bd acf7 313d d252 a9bb
00000060: a080 b0bc 1ef1 00be be24 c33b 28c7 9f3b
00000070: 5ee2 89bd 8190 e33d 4963 e93c 579d 58bd
00000080: ab46 c0bd bc74 343d d7e4 a13d 1f42 9b3d
00000090: e9f2 213d 6027 81bd 3b73 013e 8210 dbbd
000000a0: b484 9abd 56c4 aebd 3238 ba3d 48e4 073e
000000b0: dd2d a4bd b8c0 e63d ba9a 7cbd 6700 193d
000000c0: b4b1 85bd 7cc7 db3a b027 823b d077 a53d
000000d0: fbd0 b33d c949 c3bc aae7 4a3d a71f d33d
000000e0: db2b debd a8cf c63d ee60 9abd 5556 31bc
000000f0: ac21 a9bd 65ca acbd acc0 723d ea98 d5bd
00000100: d910 603d a62c f83d 757a 89bd 1f24 e43c
00000110: fd61 f4bd 2ad6 88bd b9b4 aebd 4a1d bf3d
00000120: 7368 91bd 9f46 fb3d ff6d f1bc 131e a33c
00000130: b771 98bc db83 f2bc 51e8 413d 1cbb 4c3c
00000140: 7e44 bdbb e46d ba3d edb5 debc 5240 fa3d
00000150: 7ed9 c9bc 754a 3bbd 218e 8c3c efb0 953d
00000160: 72f4 57bb c3b4 b93d 22ca bfbd e14c 7e3d
00000170: f068 6a3d c1d7 9f3b 525e bcbd c34a 0cbd
00000180: 8022 3f3d 5553 c03d 7179 dbbd 8de1 e03c
00000190: 6db9 53bd f3cd 05be 1165 eebd c6c8 edbd
000001a0: 73f6 c7bd 8d0f 0c3c be24 a83d bdab 9fbd
000001b0: 5ed1 8cbd 2355 51bd 9e7b e83d 93ba acbd
000001c0: 2aa3 a33d e7bc 61bd 109c 973c 0357 97bb
000001d0: 7f96 61bd 402b 38bd 5719 e13d 2c3e 97bd
000001e0: 73b3 313d 6c60 f93d f329 77bc 35d4 babd
000001f0: c010 20be 52ec 2f3c 8479 2fbd 6210 a0bb
00000200: 50b4 833d 08fa ad3c e122 833d 4361 c53d
00000210: c801 5ebd 500f 84bc c075 033e 2dfc 28bd
00000220: 7899 413d a222 3f3c f8f5 a13b f380 323d
00000230: 3c34 03be 3c59 7c3d b547 ce3c 9ccb 39bd
00000240: 71f7 143e f1d9 f9bd cb1f 30bd 9296 27bd
00000250: 9358 cebd bdb5 d6bc fa05 473d 234a f938
00000260: 7a1a e9bb cfc2 9ebc a704 b93d c06d 293a
00000270: ffb7 eb3c df85 02be a734 86bc 826d 7c3d
00000280: f064 923d b01d 063d b5a1 e63d 9385 123d
00000290: f45c 543d b23a 953d 8b42 14bd 1463 18bc
000002a0: a961 ebbd c1ba 453d f3a3 73bc f52c b8bd
000002b0: b745 c3bd cd75 d5bd 9214 06be bfcd d13d
000002c0: 04eb 863d bb26 cb3c 07a2 a8bd d85b 683d
000002d0: 485e 03bd ed32 da3d 43c6 9b3b 75ba 12bd
000002e0: 8d80 473d 2fba 073e 686c 98bd 30cb 073d
000002f0: 9cef 06bd 55b4 a8bd 271d 3fbd 002e 76bd
0.017570347 -0.057806674 -0.12408291 -0.04481004 0.058812343 -0.1353996 -0.061694212 0.11043274
0.028013775 0.009115152 0.03177612 0.07953848 -0.09459209 0.03885943 -0.008939464 0.11466937
0.014474088 0.049091313 0.07577303 -0.1250696 -0.02450404 -0.05535337 0.04344909 -0.0051673437
-0.021545708 -0.12591979 0.0059553077 0.004876036 -0.06732629 0.11111546 0.028489726 -0.052884426
-0.09388479 0.04405664 0.07904976 0.07580971 0.039538298 -0.06306338 0.12641613 -0.10696508
-0.07544842 -0.08533542 0.0909275 0.13270676 -0.0801656 0.11267227 -0.061670996 0.0373539
-0.06528035 0.0016767825 0.0039720163 0.08079493 0.08780094 -0.023838894 0.04953734 0.103087716
-0.108482085 0.09707576 -0.07538019 -0.010823806 -0.082583755 -0.08437041 0.059265777 -0.10429557
0.054703567 0.12117891 -0.0671281 0.027849255 -0.11932752 -0.066814736 -0.08530564 0.09331758
-0.071 0.12269329 -0.029471396 0.019911801 -0.018608911 -0.02960389 0.047340695 0.012495782
-0.005775987 0.09102991 -0.027186358 0.122192994 -0.024639841 -0.045725305 0.017157616 0.07309138
-0.0032952097 0.09067681 -0.09364726 0.062085036 0.057228982 0.004878015 -0.09197678 -0.034250986
0.04666376 0.09390894 -0.107165225 0.027451301 -0.051690508 -0.13066845 -0.11640371 -0.1161056
-0.09763803 0.0085486295 0.08210133 -0.07796428 -0.06875871 -0.051106583 0.11351703 -0.08434024
0.079901055 -0.055111792 0.018507034 -0.004618527 -0.055075165 -0.04496312 0.10991161 -0.07384905
0.043384027 0.12176594 -0.015085685 -0.091225065 -0.1563139 0.0107374955 -0.042840496 -0.0048847655
0.06430876 0.021237388 0.06403137 0.09637692 -0.054200917 -0.016120583 0.12837887 -0.04125612
0.0472655 0.011665972 0.004942652 0.043580007 -0.12812895 0.061608538 0.025180677 -0.045360193
0.14547516 -0.12199772 -0.04299907 -0.04091508 -0.10075488 -0.026209706 0.048589684 0.00011887054
-0.007113752 -0.019380001 0.090340905 0.00064631924 0.02877426 -0.1274638 -0.016382528 0.061627872
0.071481586 0.032743156 0.11261312 0.035771918 0.05184646 0.07286586 -0.036196273 -0.009300966
-0.114932366 0.048273806 -0.0148706315 -0.0899295 -0.095347814 -0.10422859 -0.13093784 0.10244321
0.065877944 0.024798742 -0.08234029 0.056728214 -0.032072335 0.106542446 0.0047538592 -0.03582235
0.04870658 0.13254617 -0.07442552 0.03315276 -0.032943353 -0.082375206 -0.04665866 -0.060102463

rnn.weight_ih_l0_reverse f4 [192, 168]
00000000: 606d 9dbd 6df3 e8bc f1db 243d 1f62 11bd
00000010: 76e9 9a3d 12e3 34bd a2e4 35bd 2a96 37bd
00000020: e5af ddbd f5a2 c23d b371 073e 4a42 f73d
00000030: 4c69 fd3c 4ead 2cbd 35de ef3d b9f0 083e
00000040: 6585 d13c 204f c7bc a241 40bd cd57 91bd
00000050: a70f 08bd 64f5 20bd cddf dc3c 32cb c33d
00000060: 7971 8b3d 3c68 01bd 9f4a 85bc 704e e23d
00000070: b671 043e f599 933d 0f2a b83c 9c70 873d
00000080: eccd d43d 63a3 293c 5445 f03c 7b50 aa3d
00000090: c93b c33d 60b4 ca3d 501d 933d ffc8 323d
000000a0: 28f6 13bd 04fc ec3c b84d 353c c76a 57bd
000000b0: d6a2 7a3d 7be6 aa3d d414 453c 0542 0b3e
000000c0: f922 263d 07ef 093e 1804 74bd 34a2 003e
000000d0: 9080 543b 837c bcbd d04d 113c 9256 11bd
000000e0: d93a ec3a 3c84 673d 164f 513d 0dd3 3ebd
000000f0: 860a a93d d8c1 99bc 016f 50bd 9aa9 4bbb
00000100: b3cb 8dbd 6a77 cebd 44ba 0d3e 355a dc3c
00000110: be3e af3d c7e8 b43d 3eb2 803d 85c4 bb3d
00000120: 3d36 2c3d 16b5 103e 4cbc c4bd a45d 933d
00000130: f9c3 a6bc fb32 84bd e956 2ebd cbc1 c5bc
00000140: 4040 97bd c7e0 b63d 5c8a 8f3d 6c44 d03d
00000150: 5b7f 7cbd ce79 153d 2f8f 923d 7633 de3d
00000160: 8963 9eba 19df 043e 476a 3ebd db31 563d
00000170: de54 443d 6a6e d1bd 6e6a 9fbc 4b6c e1bd
00000180: 3365 ccbc 914a ec3d 2167 d03d 1a8d b13d
00000190: 18c8 a93c b782 87bc 4515 433d 274a b53d
000001a0: fb79 8dbd b3b3 0c3d ad65 11bd a337 0c3e
000001b0: 09e6 b23d 46e4 cabd f57b c9bd 9d33 98bd
000001c0: c54c ec3d f79e d0bd 0594 583d 2db6 d9bd
000001d0: 96c1 fabc d037 58bd 4e56 073e 32ef d63c
000001e0: 8581 89bd 0766 2abd 7c0d d33d f12b 8dbd
000001f0: f0a0 5a3c 6a2d a63d 17c2 a3bd ebb7 b33d
00000200: 0852 40bd 6fab 29bd 16de 12bd 5cb6 473d
00000210: 506b d3bd e4b5 1c3d d2b2 16bd d2a5 85bd
00000220: bead 8abd a8db 0dbd 99a5 a8bd ada4 aabd
00000230: cc02 683c 5c84 b2bd 1bc9 003e f34c 0f3e
00000240: 6554 413d e05e ca3d ed4c ea3c 28f0 d33d
00000250: af0b a13d 4b19 2abc 327e 273d 3c9d ddbd
00000260: 784b f13c 5d51 8d3d cc66 3d3c 53ab cd3d
00000270: 457e 023d 07f3 31bd 72b8 303d 0e76 113d
00000280: 4295 68bc 40f3 ecbc c606 9ebd 5703 e63d
00000290: d159 c83c db9f 92bd a8b0 00bd 99a8 813c
000002a0: c1b4 febd 49b8 98bd 3622 96bd ffe5 213b
000002b0: ed59 533d ac07 cbbd ac5c 233c 16fc 8b3d
000002c0: 14d2 8bbd 8142 1abd 8eef 8bbc 1887 95bd
000002d0: 1109 afbd 2a1e aabd 90c6 94bd d2c9 d5bd
000002e0: b9ca aa3d c83a 24bd e8df 85bd 12f4 d6bd
000002f0: 59b8 01bd 68b8 923d c4ae 6bbc 3223 adbd
00000300: 7ce1 133d 45ee c63d 56b0 553d 781b 08bd
00000310: f101 3d3d 217d d9bd a88f d5bd 4321 08be
00000320: af4f 07bd c85e f5bd fe9f b23c c0b9 0ebe
00000330: 98e5 05be 8576 14bd 7847 f33b 3df7 4ebd
00000340: 1ab3 6abd 7768 bb3c d592 3b3b 6274 fcbd
00000350: c0f9 273d 16eb 143d 4996 ebbd 66df 88bd
00000360: b683 00be 3cf9 f6bd d6c6 babd b653 d13b
00000370: a46d f4bd 4b34 203d 8e54 bfbd 099a 13b8
00000380: dfd9 b4bd e813 43bd f2e4 2abc 5ccb 703d
00000390: 4c96 b23c c2ac f0bd 3150 b43c c102 f4bd
000003a0: 8622 393d 35f6 e5bc d9e8 00bc 2f65 cebd
000003b0: c561 253d 94a3 35bd 4464 0bbd 7e9c af3d
000003c0: f2ae 7ebc a79d 12be b793 043c 7d93 d2bd
000003d0: aeca 913d 5671 d63d d7c4 b23d a937 7e3d
000003e0: 6a54 c73d 25a7 c7bd af84 e0bd 5d28 fdbd
000003f0: 94a4 0fbe 3774 b33c 7666 563d 3b61 70bd
-0.07686877 -0.028436387 0.040248815 -0.035493966 0.075640604 -0.044161864 -0.044407494 -0.044820942
-0.10824565 0.09503738 0.13226967 0.120731905 0.030933999 -0.042157464 0.117123045 0.13373078
0.025576303 -0.024329722 -0.046937592 -0.07096825 -0.033218052 -0.039296523 0.026962185 0.09560241
0.068087526 -0.031593546 -0.016270934 0.11050117 0.12934002 0.07207099 0.022480993 0.066132754
0.10390839 0.010353896 0.029329933 0.08316132 0.095328875 0.09897685 0.07183325 0.043648716
-0.036123425 0.028928764 0.011065893 -0.052592065 0.06119045 0.08344742 0.012028892 0.13599403
0.040560696 0.13470088 -0.059574217 0.12561876 0.0032425262 -0.09203436 0.00886865 -0.03548295
0.0018022909 0.056522593 0.051100813 -0.046587992 0.0825396 -0.01876919 -0.05088711 -0.0031076432
-0.06923618 -0.1008137 0.13840586 0.026898483 0.08556889 0.08833461 0.06283997 0.091683425
0.042043913 0.14131579 -0.09606227 0.07195595 -0.020357119 -0.06455036 -0.042563353 -0.02414026
-0.073853016 0.089295916 0.07008812 0.101693004 -0.061644893 0.036493115 0.07156216 0.10849659
-0.0012084107 0.1297573 -0.046488073 0.05229364 0.0479325 -0.10226138 -0.01945993 -0.11006983
-0.0249506 0.1153766 0.1017592 0.08669491 0.020725295 -0.016541822 0.047627706 0.08852034
-0.069080316 0.034351062 -0.035497356 0.13693099 0.08735282 -0.09906821 -0.09838096 -0.074317195
0.1153808 -0.1018657 0.052875537 -0.106304504 -0.030609887 -0.052787602 0.13216516 0.026237104
-0.06714157 -0.041601207 0.10305306 -0.06893147 0.013344035 0.08114131 -0.07996004 0.08775314
-0.04695323 -0.041423257 -0.03585633 0.048757896 -0.103232026 0.038259402 -0.03679163 -0.06525768
-0.0677142 -0.03463331 -0.0823471 -0.08332191 0.014160823 -0.08716652 0.12576716 0.13994198
0.047199626 0.09881377 0.028601134 0.103485405 0.078635566 -0.010382007 0.040891834 -0.10821006
0.029454932 0.069002844 0.011560153 0.10042443 0.0318587 -0.04344466 0.04314465 0.035512976
-0.014195742 -0.028924584 -0.07716136 0.11231106 0.02445689 -0.07159396 -0.031418473 0.015827464
-0.1243682 -0.074570246 -0.07330744 0.0024703739 0.05159943 -0.09913573 0.009970825 0.06835191
-0.068271786 -0.03766108 -0.017082002 -0.07301158 -0.08546651 -0.083065346 -0.07264435 -0.10438885
0.083394475 -0.04009512 -0.06536847 -0.104957715 -0.03166995 0.07164079 -0.014384929 -0.084539786
0.03610371 0.09713415 0.05217012 -0.03322932 0.04614443 -0.106195696 -0.10427791 -0.13293938
-0.033034977 -0.11980969 0.021804806 -0.13938046 -0.13075864 -0.03624584 0.007424291 -0.050528754
-0.05729971 0.022876961 0.0028621454 -0.12326886 0.041009665 0.036357008 -0.11503274 -0.06683235
-0.12550244 -0.120592564 -0.09119956 0.006388153 -0.11934975 0.03911237 -0.093422994 -3.5190988e-05
-0.08830618 -0.047626406 -0.010430561 0.05878769 0.021800183 -0.11751701 0.022010894 -0.11914588
0.04519894 -0.028071502 -0.007868015 -0.10077893 0.040376443 -0.044345453 -0.034031168 0.085747704
-0.01554464 -0.14317952 0.008091859 -0.102820374 0.07118736 0.10470836 0.087289505 0.0620648
0.097328976 -0.09748677 -0.109628074 -0.12361214 -0.14027625 0.021906001 0.052343808 -0.058686476

rnn.weight_hh_l0_reverse f4 [192, 64]
00000000: ae63 e83d 6460 39bd 04b3 28bd a47e d73d
00000010: 8698 8d3d 44aa c8bd 520a e13d bc07 1cbd
00000020: 2873 543d d89b cc3c f8a5 e6bd fe6a d4bd
00000030: b0b4 dcbd 0c9f a73d 2c40 76bd 80f4 9d3d
00000040: 504c dc3d ee9f 983d c867 eabd 94e5 433d
00000050: e0c1 9d3c 7452 1fbd 7667 b23d be7b 813d
00000060: f425 153d 0073 a23b 9465 5c3d 5afa 943d
00000070: fc88 27bd f6d4 f63d 8aba bb3d c81b ffbc
00000080: eced b13d 4037 853c 5294 b53d 6e52 873d
00000090: 062b 9d3d 44b2 03bd e067 653d dc71 e33d
000000a0: 0ab0 80bd d2a2 fd3d de08 c93d 0080 58bb
000000b0: e83f d9bd b01a e83d bc6c 1c3d 80e3 23bb
000000c0: b832 bb3c 0829 99bd cec7 da3d f4c0 15bd
000000d0: e0a3 bcbd b03d fa3c 2063 35bc 06bc b13d
000000e0: d069 90bc 8488 9fbd b8f6 89bc 0072 94b9
000000f0: 6a10 cf3d 8071 2dbb 701f 3ebd d232 dabd
00000100: 007f 28bc 822a 80bd 80b1 e73b c6cc 92bd
00000110: 204c 3c3d 18c1 b3bd 92c2 d93d d8d2 efbc
00000120: 40e1 01bb 6057 4c3c 8089 373d 6435 eebd
00000130: ccdf 48bd f039 c33d 3c97 023d a06d d1bd
00000140: b24a aa3d 008d a5bd 5ab4 bfbd 8c13 fdbd
00000150: 2485 4e3d b04d 003c 6091 033d d078 8abc
00000160: 6cce be3d 40e2 41bd 925b ccbd 2c38 8fbd
00000170: 888d adbc d8f3 9d3d 1c44 c2bd 1009 debc
00000180: 205f 78bc 8c85 2c3d f8db b5bc 1814 f63d
00000190: f839 edbc 80f6 0bbc 28fc e7bd 38b0 083d
000001a0: 30b8 97bd 34f2 3b3d b03c ba3d c267 f03d
000001b0: b4bf 96bd 548f a63d 6403 b9bd 08dd dcbc
000001c0: 1a75 ef3d 8887 7e3d 1834 963d ae4e a2bd
000001d0: 2c02 b3bd a857 bdbd 72fb eebd 5c9a 6a3d
000001e0: e8a8 72bd baf6 92bd 2ef8 843d 9c10 dabd
000001f0: b872 69bd b089 dd3c 9c5f 19bd 6a15 8b3d
00000200: 1c53 b13d 244f d0bd 5c6f 26bd b40e f33d
00000210: c08d 3d3b d62e 89bd e0ab 51bd 96b9 dcbd
00000220: 729e b73d 84bf 3fbd 3677 ef3d 6851 e43c
00000230: ac5a 4dbd 5cc9 b03d c014 643d ec94 c93d
00000240: 64af 593d b8f6 efbc 96a9 d9bd c044 2f3d
00000250: 2edf e7bd 24be e5bd f291 8dbd 182d 793d
00000260: c4d5 38bd ec11 f33d 302e 9abc e825 73bd
00000270: d02f f4bd a059 5d3c 8e75 a7bd 46e3 d9bd
00000280: dc54 cfbd c000 fc3b 92e8 8d3d bcc2 07bd
00000290: d870 b6bd 6417 ca3d 76a4 f8bd 7a31 b33d
000002a0: 8055 0cbd 52b7 c1bd b69f e03d 48fd bd3d
000002b0: b02e d63d 56b2 c5bd 78ad febd 2ce1 f3bd
000002c0: 9c77 e03d 90fe a13c 480b 963c 4a41 8b3d
000002d0: a49c 4e3d 40a9 573b bc4e 37bd 38d4 a1bd
000002e0: 147d 94bd 1c07 bc3d c018 6d3d 008d 573b
000002f0: 3ca1 753d 60f0 bebd 648f 79bd 7c83 d2bd
00000300: 30a9 d43d 00ba cd39 b63e edbd dc7e 4d3d
00000310: d893 4ebd 9035 9e3c 28db 413d b0f8 5e3d
00000320: 8a7c 98bd 86e3 9c3d f052 e2bc 50bd ffbd
00000330: 04cd 9b3d 50e0 cdbd 349b da3d 4c65 39bd
00000340: 6613 f3bd a059 28bc 9c30 60bd b2d2 cf3d
00000350: 1003 cb3c c685 a63d 700e e2bd 0e76 ccbd
00000360: c428 5c3d 8e60 a1bd 4cf4 003d 7469 5f3d
00000370: e086 5bbd 20e4 0abd 5849 ec3d 142a e6bd
00000380: 8c95 9bbd 222e 95bd 146d 723d 8a0b e73d
00000390: 86c6 843d b683 b4bd 48e8 aa3d 5c8c d9bd
000003a0: 4e36 b83d 00e6 1cbb 2c6a 083d eac8 f43d
000003b0: 44b3 6fbd ca59 8b3d c443 02bd 5e96 e1bd
000003c0: 047a 2b3d 344f 9c3d a89e ac3c a09c fbbc
000003d0: e0cf 49bc 00fd 343d d057 27bc a04d adbb
000003e0: 345a d33d 78e5 a73d f2d9 f83d 2016 8b3c
000003f0: 0e96 833d f443 56bd e04f ebbc e47f d83d
0.113471374 -0.04525794 -0.041186348 0.10522202 0.06913857 -0.097981006 0.109882966 -0.038093314
0.051867634 0.024976656 -0.11262125 -0.1037197 -0.10776651 0.08184633 -0.060119793 0.0771265
0.10756743 0.07452379 -0.11445576 0.047826365 0.019257486 -0.038896993 0.0871114 0.0632243
0.036413148 0.0049575567 0.05380781 0.07274313 -0.040902123 0.12052338 0.09166439 -0.031141177
0.08687958 0.016261697 0.088661805 0.06607519 0.07674222 -0.03215243 0.056007266 0.11105701
-0.06283577 0.12384571 0.098161444 -0.0033035278 -0.10607892 0.11333215 0.038189635 -0.0025007427
0.022851333 -0.07478529 0.10682641 -0.036560968 -0.09210944 0.030546993 -0.0110709965 0.08678441
-0.01762858 -0.0778971 -0.016841277 -0.00028313696 0.101105526 -0.0026465356 -0.0464167 -0.106542245
-0.010284185 -0.06258108 0.00707072 -0.07167964 0.045971036 -0.08777064 0.106328145 -0.029275343
-0.0019818097 0.012472004 0.044808865 -0.11631277 -0.049041554 0.09532535 0.03188251 -0.102259874
0.08315028 -0.08083534 -0.09360571 -0.12357244 0.05041994 0.007831022 0.032121062 -0.016903311
0.093167156 -0.04733491 -0.09978403 -0.06993136 -0.021185651 0.07712525 -0.09485647 -0.02710393
-0.015159398 0.042119548 -0.022199616 0.12015551 -0.028958306 -0.008542657 -0.11327392 0.03337118
-0.07408178 0.04588528 0.090936065 0.1173854 -0.07360783 0.081328064 -0.0903385 -0.026960865
0.11692257 0.06214097 0.07334155 -0.07925163 -0.087406486 -0.09245235 -0.11669053 0.057276115
-0.059243113 -0.071759656 0.06492649 -0.10647699 -0.05699417 0.027043194 -0.037444696 0.06791194
0.0865843 -0.10171345 -0.040633544 0.11868039 0.00289236 -0.06698386 -0.051189303 -0.10777585
0.08965768 -0.046813503 0.116926596 0.027870849 -0.0501353 0.08632156 0.05568385 0.09842858
0.05314578 -0.02929245 -0.10628049 0.042790174 -0.11321865 -0.11217907 -0.069126025 0.06083402
-0.045125738 0.11868653 -0.018820852 -0.059362322 -0.11923182 0.013510138 -0.08176719 -0.10639052
-0.101236075 0.007690519 0.06929125 -0.033144698 -0.08908242 0.09867743 -0.121407434 0.08749671
-0.034261227 -0.09458794 0.109679624 0.09276825 0.10458124 -0.096531555 -0.1243543 -0.119081825
0.10960314 0.019774705 0.018315926 0.06799562 0.050442353 0.0032907277 -0.04475282 -0.07901806
-0.07250419 0.091810435 0.05788493 0.003289044 0.05996822 -0.09323192 -0.060927764 -0.10278985
0.103838325 0.00039239228 -0.11584227 0.05016981 -0.050433964 0.01931265 0.047328144 0.054436386
-0.07445629 0.07660584 -0.027627438 -0.1248728 0.07607463 -0.1005255 0.10674134 -0.04526262
-0.11868934 -0.0102752745 -0.054733858 0.10147609 0.024781734 0.08130984 -0.1103791 -0.09983455
0.053749815 -0.078797445 0.03148298 0.054543927 -0.053595424 -0.033908963 0.11537427 -0.112384945
-0.07596883 -0.0728419 0.059186056 0.11281498 0.06483178 -0.08814184 0.083450854 -0.106224746
0.08994733 -0.0023940802 0.03330438 0.11952384 -0.05852057 0.06804235 -0.031802908 -0.110150084
0.04186441 0.07632294 0.021071747 -0.030714333 -0.012317628 0.044186592 -0.010213807 -0.0052887946
0.10319939 0.081980646 0.12150945 0.016978323 0.06425105 -0.0523109 -0.02872461 0.10571268

rnn.bias_ih_l0_reverse f4 [192]
00000000: 6906 d6bc 2066 80bd 72e4 46bd 5804 47bd
00000010: 6f04 223c 5ffb 98bc 82d4 2eba 6a1f af3d
00000020: 0854 ebbc bc1d adbd 7957 95bc 386b 00be
00000030: 02b3 e3bc a947 b9bd ddf6 a5bd 4c01 c9bd
00000040: 6551 b4bd 4d15 15be 4890 ca3d ca05 a63d
00000050: a080 b03d 3ddf 973d 6374 a53c aeb2 07be
00000060: 72d0 9b3c 39d5 a53d 5f04 1d3c 2d73 b03d
00000070: eb6d 9a3d 45b8 9d3d aafd 4c3d ee8a db3d
00000080: 1236 39bb 168d 1fbd 6454 b3bc 4f13 9dbd
00000090: c4d1 94bd ce55 a6bd b099 3bbd 9d5d 94bd
000000a0: aa92 af3d 20c2 6e3d c33d d3bb 3e72 493d
000000b0: 8dfa c6bd e6fe 12be 7f3f 9abd 5827 08be
000000c0: 73ca 0abd 421a 573c b438 8a3d c0b0 5b3b
000000d0: ab54 913d 22e8 70bd ddbe 9abd fd2d debd
000000e0: c049 96bd 92be 9e3d fcb3 f3bd e03c babc
000000f0: 8af5 c6bd 5589 11be 4cff 1c3e ed36 e43d
00000100: 1a0e 83bd 8b93 3f3c 082a 283d e2e1 ce3d
00000110: 317f b03d da9c 903d 9d0a ecbc 7109 893d
00000120: b278 dabd 8733 ff3d ebf1 aebb ce3e a73d
00000130: 79f1 c43d 50bd 523c 5e45 97bd 6ac7 043e
00000140: 0a62 c6bb 0fe7 d03c 10c0 20be bc48 a83d
00000150: a413 98bd 12e6 dd3d 106d 63bd 20e0 353d
00000160: 2ff5 a7bd cf6e b7bd 70d9 febd 543b d33d
00000170: b3da 363d 1cb2 36bc c08d 0f3d ccdb fe3c
00000180: d590 66bc 5980 f83d 3282 19bd 66b6 a93d
00000190: 9266 0e3e 86e6 583d a615 e939 2226 cb3d
000001a0: 28aa 6e3d 4382 fdba 78e4 ea3c 6a07 863d
000001b0: fe4d 1fbd 18e8 f9bd 1bfc a13c ac2e debd
000001c0: 983b a1bd ab27 e53c c3e8 c6bd da81 e93d
000001d0: 1351 a73d 7f03 9fbd 0f54 1bbe acab aa3c
000001e0: 785c cd3d fec1 2e3e 9842 babd 1ce8 c4bc
000001f0: ae3f 3cbd d1bd 253e 55e0 9fbc 95ec 08be
00000200: 2b49 c4bd 6543 e73d dad0 4e3d 0808 f13d
00000210: 8aa5 64bd f7ba 3abc 2f2f c5bc 9891 7e3d
00000220: 141a b03d db1b d23b dac1 a3bc d832 043e
00000230: 41bd 9a3c aaf1 bf3c edfc bbb9 111a 7dbd
00000240: fff8 80bd cc52 7ebd abe3 87bd 8788 f1bd
00000250: d1fc 0abc 2446 e9bd a83a cfbd 0b2f 97bc
00000260: 123a 833d 20a5 50bd c589 c03c 14c5 c9bc
00000270: 117f 563d f980 bd3d d794 1d3e 5a08 053e
00000280: 2c26 643d 0e55 623b b070 1abd dd63 95bc
00000290: da1f c2bc b4f8 5a3c a14d 87bd 1f6b acbc
000002a0: 7304 e3bd c195 c73d ccfe 2cbd 3512 a4bc
000002b0: 235d e43d 8fed 893d a892 84bd 817b ed3d
000002c0: 3547 c33d 47d8 19bd 4433 ce3c cfe7 683d
000002d0: b02b fc3b 5f19 b63b 9d6a 6ebd 02f5 473c
000002e0: c994 b0bd 447b 23bd 3161 b53d aa03 dd3d
000002f0: c1a1 d13d 0025 90bd 9468 2a3e e46e 833d
-0.026126103 -0.06269479 -0.048557706 -0.048588127 0.009888752 -0.01867455 -0.00066692394 0.08550914
-0.028726593 -0.08452937 -0.018230187 -0.125409 -0.027795319 -0.09046871 -0.08103726 -0.098147005
-0.08804587 -0.14558907 0.09890801 0.08106573 0.08618283 0.07415626 0.0201971 -0.13251755
0.019020293 0.080973096 0.009583562 0.08615718 0.075404964 0.07701162 0.0500466 0.10719858
-0.0028260988 -0.03895291 -0.021890827 -0.076696984 -0.07266572 -0.08121835 -0.045800865 -0.07244418
0.08572896 0.0582906 -0.0064465716 0.049181215 -0.097157575 -0.14355049 -0.07531642 -0.13296258
-0.033884477 0.013128819 0.067490965 0.00335221 0.07096227 -0.05881513 -0.075559355 -0.10848615
-0.073382854 0.07751192 -0.11899564 -0.022734106 -0.097148016 -0.14212544 0.15331763 0.11143289
-0.06399174 0.011692892 0.04105571 0.101016775 0.0861801 0.07061167 -0.028813655 0.06691254
-0.10667552 0.12461 -0.0053388975 0.08166276 0.0961637 0.012862518 -0.073862776 0.12966695
-0.0060541676 0.025500802 -0.15698266 0.08216998 -0.07425621 0.10834898 -0.055523932 0.044403195
-0.08201062 -0.08956682 -0.12443817 0.1031405 0.04464216 -0.011150863 0.035047293 0.031110667
-0.014072617 0.121338554 -0.03747768 0.08286743 0.13906315 0.05295422 0.00044457352 0.09919383
0.058267742 -0.0019341189 0.028673396 0.06544383 -0.03889274 -0.122024715 0.019773534 -0.10848746
-0.07872695 0.027973017 -0.097123645 0.1140172 0.081697606 -0.07764339 -0.15168785 0.020833813
0.10027403 0.1706619 -0.09094733 -0.02403646 -0.045959167 0.1618569 -0.01951615 -0.13371499
-0.09584268 0.11292151 0.050492145 0.1176911 -0.055821933 -0.011397115 -0.02407035 0.062150568
0.08598724 0.006412012 -0.019989897 0.1291002 0.018889071 0.023430664 -0.00035855864 -0.061792437
-0.06297492 -0.06209068 -0.06635221 -0.11793619 -0.008483128 -0.113903314 -0.1011861 -0.018455049
0.064075604 -0.050938725 0.023503194 -0.024630107 0.052367274 0.09253115 0.15388809 0.12991467
0.055700466 0.003453556 -0.037705123 -0.018236095 -0.023696829 0.0133649595 -0.066066034 -0.021047173
-0.11084833 0.0974536 -0.04223518 -0.020028213 0.11150577 0.06734764 -0.06473285 0.11595822
0.09535066 -0.037559774 0.02517093 0.056861695 0.0076956376 0.0055572237 -0.058207143 0.0122044105
-0.086221285 -0.039912477 0.088564284 0.107917145 0.1023593 -0.07038307 0.16641456 0.06417635

rnn.bias_hh_l0_reverse f4 [192]
00000000: 06ed 08be 5c96 9f3c 9585 ccba 0c01 b8bc
00000010: e910 b93d ef60 8abc 0e8f ea3d 44f1 063e
00000020: 00b0 763d 1779 04be 505b 2bbd b810 0dbd
00000030: 259c 25bd 27b4 dabd 5109 b43d e0f4 ebbd
00000040: d32a a23d b5c6 9bbc 2ec4 a2bd 69f7 c03d
00000050: 3c39 07bd 3d8f ce3d f340 58bd 83a6 c3bd
00000060: 4baa fdbd 2b68 a7bd 8a37 093d 2876 62bc
00000070: a119 3f3b 98c3 c63c bc59 343d 281f a3bd
00000080: aaa3 903d ad98 bebd e82e d63c 9f1a a93d
00000090: 1f4e 443b df9e e6bb 6eca 0dbe 742f 3b3d
000000a0: ba6c 88bd a16d 973d aec6 a93c ed82 693d
000000b0: 8c44 973c 81df 85bd e9a2 63bc 1d04 a23d
000000c0: ba44 83bd b8ca 70bd 64b6 223e ffa6 7cbb
000000d0: 30f4 243d a135 113e 0679 433d 5fa8 3a3d
000000e0: 54f0 373d 802c b3bd ff74 663d ee62 b4bd
000000f0: 307e a33c 197d 3bbc 061a 223e 49ec bebd
00000100: aa24 6e3c d32f ac3b 2232 f5bd ce5c d7bd
00000110: 7330 653d ae44 bcbd ed9e 55bd 563a 8cbd
00000120: 248c a6bd b88f 8a3c 1185 603c c4c2 ab3d
00000130: cbbc 053e 9013 ac3d 403f b43d 87b2 3ebd
00000140: 43ee 273d 98f6 8e3b e639 62bd e57c d5bc
00000150: e099 f73d 41cb 333c 89db e53d 8dcc f33c
00000160: 0f24 243d 70bd 313d 82c4 00bc 5c96 b33d
00000170: 2dd3 fc3d 42e9 b3bd b2fc 31bc 2e9a a43d
00000180: 66a5 02bd b8f6 fd3b 0982 223e 12bb aabc
00000190: aaad 113e 91ce 7e3d 2f6a 6c3d 103a 643c
000001a0: b17c e2bc 717f b2bd 2a39 2c3a b707 04be
000001b0: 419a e03d ee36 5cbd 6cb7 4a3d ec54 4c3d
000001c0: c0a7 813d f921 82bd aad6 f83b 156b fdbc
000001d0: 8ff0 6fbd f0fe 1ebe 0a80 83bd 730f d9bd
000001e0: 12d3 633d 0783 283e ad97 433d 7c04 f8bc
000001f0: c788 46bd a64f 0d3e ec2e b23d 8095 f93c
00000200: 9bcd d6bc 007d 59bd b333 203d 41ea fabc
00000210: ab36 de3c c175 81bd 6da8 673d 0d08 a7bd
00000220: 2337 7d3d 02ba debc 28f0 9ebd a6df cfbc
00000230: cbe5 23bc bf4f aa3c 5def 89bd 712f 5bbd
00000240: 31a9 cf3d 05b6 07bc 4ecf f63c 871e c33d
00000250: 479b 663c a69a 3b3b 8a1d 53bb 806a babd
00000260: da1d 95bd dfda 6dbd ee0b bfbc 959a 6ebd
00000270: 9f57 073c 3740 d93d 11e6 f0bc c4fd fd3d
00000280: cdc3 ee3c cfaf 7dbd 66ff 06be 6604 923d
00000290: 7448 b4bd dfed acbd eeeb 923d 31d7 bf3c
000002a0: 9ac3 69bc a8ee 94bc be83 453d fd8b 423c
000002b0: 61b3 adbd ac0d c8bd ec2c 8bbd 79b3 c93d
000002c0: e02a d63d f652 e73b d5b7 d23d aaa4 0f3e
000002d0: f82a a23d 772c ad3d 0b07 fabd 5ead 9f3c
000002e0: 4383 a4bd f921 f53c 35d4 963d 1a0b 5ebd
000002f0: 1982 16bd 6ddf 52bd 26ca b33d 145f 363c
-0.13371667 0.019480877 -0.0015603775 -0.022461437 0.090364285 -0.016891925 0.11453067 0.13177973
0.06022644 -0.12936817 -0.04183513 -0.034439772 -0.040432114 -0.106788926 0.087908395 -0.115213156
0.07918324 -0.01901565 -0.079475746 0.0942219 -0.033013567 0.10085914 -0.052796315 -0.09553244
-0.123859964 -0.08174165 0.03350023 -0.013822116 0.0029159563 0.024263188 0.04403089 -0.07964927
0.070624664 -0.09306464 0.026145414 0.08257031 0.002995379 -0.007037982 -0.13846752 0.04569955
-0.06661363 0.07393957 0.02072462 0.057009626 0.018465303 -0.065367706 -0.013893821 0.07910941
-0.06409593 -0.058787078 0.15889889 -0.0038551686 0.040271938 0.14180614 0.04772284 0.045570727
0.04490693 -0.08748722 0.05626392 -0.08807932 0.019957632 -0.0114434 0.1583024 -0.093224116
0.014535109 0.0052547245 -0.11972453 -0.10515748 0.055954408 -0.09192787 -0.052153517 -0.06847064
-0.081321985 0.016914234 0.0137036005 0.08386758 0.130603 0.08402169 0.088011265 -0.046556976
0.04099871 0.0043628924 -0.055230998 -0.02606053 0.12089896 0.0109737525 0.11223514 0.029760623
0.04007345 0.043393552 -0.007859351 0.08768913 0.12344966 -0.08784725 -0.01086347 0.0803722
-0.031896017 0.0077503584 0.15869917 -0.020841155 0.14226404 0.062208716 0.057718452 0.013929859
-0.027647348 -0.08715714 0.00065697974 -0.12893568 0.109669216 -0.053763323 0.04949133 0.049885675
0.06330824 -0.06354136 0.0075939493 -0.03093485 -0.058579024 -0.15526938 -0.06420906 -0.1059865
0.055621214 0.16456233 0.04775207 -0.030275576 -0.048470285 0.13799915 0.08700356 0.030466795
-0.026221087 -0.053097725 0.039111804 -0.03062928 0.027125677 -0.06321288 0.056557108 -0.081558324
0.06182016 -0.027188305 -0.0776065 -0.025375199 -0.010003517 0.020789979 -0.06735108 -0.05351204
0.101396926 -0.008283143 0.030128147 0.09527307 0.014075107 0.0028626113 -0.0032213652 -0.091023445
-0.07281084 -0.05807006 -0.023321118 -0.05825289 0.008260637 0.10607951 -0.02940658 0.124019176
0.0291461 -0.061935242 -0.13183364 0.07129745 -0.08802882 -0.08443808 0.07173906 0.023418041
-0.014267826 -0.018180206 0.048221342 0.011874196 -0.084814794 -0.09768233 -0.067956775 0.09848685
0.104573965 0.0070594503 0.102889694 0.14027658 0.07918352 0.084557466 -0.122083746 0.019491848
-0.08032849 0.029923426 0.07364694 -0.054209806 -0.036745165 -0.051482607 0.08778791 0.011131067
