generationV1.pt (torch, 975961 bytes, 26 tensors)

rnn.weight_ih_l0 f4 [192, 168]
0.13013038 -0.07977827 0.093550704 -0.064802945 -0.041183233 -0.035510756 -0.1299147 -0.042505015
0.06632422 -0.053084936 -0.09964059 0.08169071 0.05382097 0.06797518 0.02093762 -0.011301781
-0.0012962155 0.081974395 0.07930588 -0.050563652 0.047036093 -0.083394356 -0.06328652 -0.08830275
-0.09431638 0.093325116 -0.022272501 -0.1113319 0.027547147 0.10655671 -0.022337107 0.07063479
0.08780563 -0.040004916 0.03841063 -0.1134185 0.04683644 0.07837437 0.018055528 0.06670004
-0.13609898 0.020519365 -0.09115323 -0.11182983 0.05429441 0.060147062 0.09849589 -0.07091573
0.101907104 0.08321333 0.028984156 0.019308697 0.106417164 -0.07227762 -0.12396939 0.031954434
0.031232852 0.00889101 -0.12530248 0.054256875 0.043153528 -0.04167522 -0.05293792 -0.11860003
-0.008655011 0.08832565 -0.052797694 0.059617814 -0.032559738 -0.0242996 -0.08916406 0.022734398
-0.08263192 -0.13488728 0.09629398 0.025053611 -0.07228493 -0.03249127 -0.039584342 -0.114291064
0.018789109 -0.1414147 0.014106903 -0.042632405 -0.12201192 0.010432159 0.1095515 -0.1352266
-0.013584555 0.020038756 -0.1364552 -0.093743555 0.03267802 -0.13558923 -0.11523588 0.10055996
-0.07560448 -0.07865979 0.03647608 0.0025348673 0.0031187832 0.034366243 0.09485724 0.040989425
-0.09486397 -0.00042339414 0.04474893 0.09871642 -0.044485155 -0.025684992 0.032738 0.015548592
-0.008274529 -0.10638735 -0.099129416 -0.10320083 -0.085685454 -0.02141946 -0.070712805 -0.12899426
0.04214113 0.07077189 -0.018187283 -0.12628768 -0.017208645 0.0629169 0.059012093 0.0013977458
-0.011479864 -0.011165971 0.11169032 0.05158596 0.073068164 -0.06737958 0.10577773 0.031289365
0.0658068 -0.061204027 0.06040326 -0.0107112 0.094782375 -0.08291119 -0.058674064 0.022842491
0.05737529 0.064374015 0.068662904 -0.09820781 -0.11200212 -0.080057226 0.025723642 -0.042848475
0.035874784 0.07814671 -0.0650392 -0.039542545 -0.05488043 -0.021714525 -0.032430056 -0.021404937
-0.12418488 -0.027853254 0.007296228 -0.024801461 -0.10832878 0.05769033 -0.13925846 -0.028844455
-0.10015789 -0.118032165 -0.010523761 0.054577768 0.060199544 0.12202742 0.022080353 -0.05650101
0.05418923 0.030256333 -0.08053038 0.115540616 0.039002206 0.11869995 0.011995559 0.15366612
-0.008294434 -0.013257107 0.024956943 -0.113093644 0.05423752 0.009860891 -0.056343075 -0.007066037
0.06988608 0.05972095 -0.071506746 -0.030777493 -0.10818588 -0.04461392 -0.0061663394 0.017114054
0.11010665 0.058311187 0.05725081 -0.04435478 0.15934978 -0.00148098 0.07918862 0.14370148
-0.021220947 0.079226464 0.087318294 0.07831423 0.0132028805 0.11611486 0.053321 0.12098345
-0.093232505 0.03280547 -0.067609295 0.020070529 -0.026878785 0.11263393 0.08528272 -0.106081754
-0.05239555 0.031475116 -0.034837645 -0.01689134 -0.0030229269 -0.04499313 0.052715287 -0.01253573
0.11264925 -0.056014344 -0.033487283 0.0949667 -0.002030395 0.07780902 -0.047356118 -0.020111123
-0.017133716 -0.07933072 0.043573216 -0.004842742 0.07276631 -0.10743853 0.03404172 0.031791177
0.14129698 0.138594 0.13054356 0.022924233 -0.066803835 -0.083198115 -0.06699108 0.061484843
00000000: e640 053e ca62 a3bd 8397 bf3d 68b7 84bd
00000010: c0af 28bd ba73 11bd 5c08 05be bd19 2ebd
00000020: fed4 873d 976f 59bd 5e10 ccbd 754d a73d
00000030: 6173 5c3d 9236 8b3d 5f85 ab3c 1b2b 39bc
00000040: c6e5 a9ba 31e2 a73d 1f6b a23d d51b 4fbd
00000050: eba8 403d a9ca aabd 5d9c 81bd 12d8 b4bd
00000060: f228 c1bd 3d21 bf3d d274 b6bc fb01 e4bd
00000070: 8eaa e13c 683a da3d 4ffc b6bc f9a8 903d
00000080: 70d3 b33d 32dc 23bd 7754 1d3d f547 e8bd
00000090: 91d7 3f3d be82 a03d 30e9 933c 089a 883d
000000a0: 885d 0bbe 3a18 a83c 8bae babd 0a07 e5bd
000000b0: d163 5e3d c45c 763d 37b8 c93d 443c 91bd
000000c0: acb4 d03d c06b aa3d 2e70 ed3c 462d 9e3c
000000d0: 3ef1 d93d 4a06 94bd aae3 fdbd a7e2 023d
000000e0: 0adc ff3c 99ab 113c 4b4f 00be 753c 5e3d
000000f0: c1c1 303d a3b3 2abd 6fd5 58bd 93e4 f2bd
00000100: bfcd 0dbc 14e4 b43d 6542 58bd cf31 743d
00000110: 5c5d 05bd f40f c7bc a69b b6bd 7d3d ba3c
00000120: ed3a a9bd e41f 0abe c735 c53d 3b3d cd3c
00000130: 1f0a 94bd 9115 05bd 3123 22bd 6f11 eabd
00000140: 9eeb 993c 04cf 10be a420 673c 519f 2ebd
00000150: 63e1 f9bd a5eb 2a3c 895c e03d d878 0abe
00000160: c191 5ebc 5128 a43c e9ba 0bbe 9ffc bfbd
00000170: 63d9 053d e7d7 0abe ca00 ecbd 61f2 cd3d
00000180: 86d6 9abd 6218 a1bd f167 153d 0420 263b
00000190: 8064 4c3b 9ec3 0c3d 8344 c23d 87e4 273d
000001a0: 0b48 c2bd 00fb ddb9 a74a 373d d62b ca3d
000001b0: 1136 36bd 5569 d2bc 4818 063d 86bf 7e3c
000001c0: e491 07bc 9ce1 d9bd 5d04 cbbd f55a d3bd
000001d0: db7b afbd dd77 afbc e0d1 90bd 1217 04be
000001e0: 2d9c 2c3d daf0 903d 7ffd 94bc 8f51 01be
000001f0: 25f9 8cbc 93da 803d aab6 713d 9134 b73a
00000200: 0a16 3cbc 7af1 36bc e5bd e43d cd4b 533d
00000210: c3a4 953d 4efe 89bd ffa1 d83d 4729 003d
00000220: b7c5 863d 13b1 7abd 6969 773d 077e 2fbc
00000230: 431d c23d 58cd a9bd 3754 70bd 2d20 bb3c
00000240: 5a02 6b3d 86d6 833d 239f 8c3d 2d21 c9bd
00000250: 5e61 e5bd 0bf5 a3bd 63ba d23c e281 2fbd
00000260: 70f1 123d 620b a03d 4633 85bd 5df7 21bd
00000270: 4dca 60bd a9e2 b1bc 61d5 04bd 6859 afbc
00000280: a454 febd 822c e4bc 3215 ef3b 6f2c cbbc
00000290: 7bdb ddbd b24c 6c3d c599 0ebe 354b ecbc
000002a0: 941f cdbd d9ba f1bd da6b 2cbc f08c 5f3d
000002b0: cc93 763d 83e9 f93d dbe1 b43c 9a6d 67bd
000002c0: 87f5 5d3d 21dc f73c 1ded a4bd 8fa0 ec3d
000002d0: c7c0 1f3d f618 f33d 0589 443c a75a 1d3e
000002e0: 61e5 07bc 5634 59bc 8172 cc3c a49d e7bd
000002f0: 2928 5e3d 938f 213c ffc7 66bd 378a e7bb
00000300: 6f20 8f3d f49d 743d 2172 92bd 1521 fcbc
00000310: 8f90 ddbd 16bd 36bd 010f cabb c632 8c3c
00000320: 987f e13d b6d7 6e3d d37f 6a3d 5cad 35bd
00000330: 972c 233e 711d c2ba a52d a23d 7b26 133e
00000340: 8dd7 adbc 7c41 a23d efd3 b23d 3663 a03d
00000350: e550 583c a1cd ed3d 1f67 5a3d 2cc6 f73d
00000360: aff0 bebd 075f 063d be76 8abd f36a a43c
00000370: e630 dcbc 9eac e63d b5a8 ae3d 6441 d9bd
00000380: b79c 56bd 0dec 003d ebb1 0ebd b55f 8abc
00000390: 4c1c 46bb b74a 38bd fceb 573d aa62 4dbc
000003a0: a6b4 e63d 4c6f 65bd f629 09bd e77d c23d
000003b0: 6010 05bb 565a 9f3d 7df8 41bd 15c0 a4bc
000003c0: 025c 8cbc 2578 a2bd d479 323d ddaf 9ebb
000003d0: 8106 953d bb08 dcbd 556f 0b3d 7737 023d
000003e0: 28b0 103e 96eb 0d3e 36ad 053e 9acb bb3c
000003f0: 73d0 88bd c663 aabd 9f32 89bd 88d7 7b3d

rnn.weight_hh_l0 f4 [192, 64]
-0.050186694 0.008397058 0.08680047 -0.011693329 -0.0332589 -0.0715823 -0.120269865 0.08074163
-0.07908295 0.032070532 -0.10120651 0.12029858 -0.121153325 -0.11486378 0.07513137 0.009073928
0.085835025 -0.056669295 0.10553302 0.0152632 0.09313226 0.12309766 -0.09170167 -0.049550146
0.03993036 -0.033232212 -0.110130966 -0.07357113 -0.025895536 -0.1023895 -0.081676826 0.03226003
0.035969257 0.043011114 0.042396754 0.023741096 0.048492268 -0.021478623 0.018861428 0.07391068
-0.081311464 -0.033851787 -0.12431133 0.023623183 0.045814633 -0.08447349 0.08731024 -0.115979716
-0.012276605 0.059311777 -0.12381525 -0.119270146 0.013700664 -0.084319636 -0.014483795 -0.0473205
0.058394074 0.08112672 -0.036960423 0.10953587 0.06308746 0.024223119 0.038388714 0.121702686
0.032750368 -0.12103991 -0.06433967 -0.058549628 0.11056705 -0.11510907 0.11327198 0.09089479
0.01775764 -0.11025719 0.019987002 0.10369372 -0.046081737 -0.014732152 -0.062511474 -0.057205707
-0.05057004 -0.10965122 -0.11423133 0.10005054 0.03455724 0.068787366 -0.02226375 -0.11132315
-0.05682358 0.102084786 -0.03716463 0.082151175 -0.051068395 -0.08126201 -0.042967588 -0.060750946
0.080034494 -0.08084248 -0.1242131 0.112437636 -0.10503866 -0.11786267 0.00058197975 -0.078162104
-0.11760935 0.06371434 -0.1123683 0.046840593 -0.071321145 0.111793086 0.0067236573 -0.018138617
0.119330525 0.11273517 0.08933365 -0.014226675 -0.07580343 0.024837568 0.050533995 -0.10967408
0.07645884 -0.104535356 0.053902984 0.11171168 0.041357994 -0.018320277 0.05597511 -0.08247426
0.014785528 0.10517998 -0.050673097 -0.10329868 0.11268504 0.120671004 -0.07303941 0.011149332
-0.08555718 0.003725201 -0.10217436 0.0065067112 0.038891166 -0.1159967 0.015536442 -0.120419785
0.053835884 -0.023205757 0.113795996 -0.121833295 0.00087828934 -0.06754731 0.006965667 0.00012136996
-0.034445584 -0.0016524643 0.02887398 -0.060943976 0.10888082 0.040418074 0.04000564 -0.014830917
0.07831837 -0.09337999 -0.044156313 -0.101408824 0.0642305 -0.099685654 0.08711645 0.014406696
0.027695164 0.024767324 -0.06929034 0.052306265 0.07138525 0.104243696 0.043010324 -0.109180406
-0.09913735 0.09545523 -0.095544964 0.082598686 0.11928426 0.020481214 0.111905426 -0.009665087
0.06672034 0.09266202 0.11203985 0.119550854 0.08149621 0.097964585 0.042161673 -0.10839109
-0.06703192 0.0030900985 -0.005303517 -0.020881012 -0.06990899 -0.11529122 0.11894812 0.03378129
-0.07413702 0.022533014 -0.061224416 -0.033747584 0.032797977 -0.07179062 -0.05010952 -0.1014429
0.0941297 0.03575705 -0.042800516 -0.105767295 0.09031813 -0.001436308 -0.1238094 0.09477502
-0.021051437 0.008315772 -0.10594161 0.073989466 0.115518466 -0.111882314 0.01340808 0.089985415
-0.002797708 0.027921468 -0.110440016 0.017564327 -0.11453144 0.084203556 -0.031891078 -0.033366755
-0.09095906 -0.08928372 0.10844016 0.042863905 0.022470698 0.0385924 0.07259588 -0.10585907
-0.021601453 -0.033496663 0.043354437 -0.04704857 0.058044776 -0.005521953 -0.021672577 -0.02043581
-0.058057263 -0.1044943 -0.062996894 -0.06760383 -0.027118579 -0.08109194 0.06631301 0.11490165
00000000: 9090 4dbd d093 093c 72c4 b13d 6095 3fbc
00000010: 7c3a 08bd be99 92bd 0c50 f6bd de5b a53d
00000020: 3ef6 a1bd 645c 033d 5c45 cfbd 1a5f f63d
00000030: 3c1f f8bd b43d ebbd 7ade 993d d0aa 143c
00000040: 46ca af3d 101e 68bd b221 d83d 8012 7a3c
00000050: 20bc be3d a01a fc3d 16ce bbbd 18f5 4abd
00000060: 048e 233d 801e 08bd 588c e1bd 76ac 96bd
00000070: e022 d4bc 96b1 d1bd 2e46 a7bd 1823 043d
00000080: 8054 133d 6c2c 303d 38a8 2d3d b07c c23c
00000090: d49f 463d f0f3 afbc 4883 9a3c 7c5e 973d
000000a0: a086 a6bd 2ca8 0abd f096 febd 6885 c13c
000000b0: 20a8 3b3d 7000 adbd b6cf b23d c686 edbd
000000c0: d023 49bc e8f0 723d da92 fdbd e843 f4bd
000000d0: c078 603c c6af acbd 704d 6dbc 24d3 41bd
000000e0: a02e 6f3d c425 a63d d063 17bd 5854 e03d
000000f0: 0034 813d 906f c63c 7c3d 1d3d 423f f93d
00000100: 4025 063d c6e3 f7bd 84c4 83bd bcd1 6fbd
00000110: fa70 e23d 4ebe ebbd 24fb e73d 0c27 ba3d
00000120: 7878 913c 86ce e1bd c8bb a33c 605d d43d
00000130: 34c0 3cbd 205f 71bc 0406 80bd 8850 6abd
00000140: 8822 4fbd d290 e0bd 1ef2 e9bd 4ce7 cc3d
00000150: e48b 0d3d 64e0 8c3d 7862 b6bc 64fd e3bd
00000160: d8bf 68bd d411 d13d f039 18bd e03e a83d
00000170: 182d 51bd b26c a6bd c8fe 2fbd fcd5 78bd
00000180: 20e9 a33d be90 a5bd 7063 febd b445 e63d
00000190: 821e d7bd fc61 f1bd 0090 183a 7413 a0bd
000001a0: 2cdd f0bd aa7c 823d 5a21 e6bd ecdb 3f3d
000001b0: d210 92bd c6f3 e43d 2052 dc3b 7097 94bc
000001c0: 9063 f43d b2e1 e63d 90f4 b63d 0017 69bc
000001d0: d43e 9bbd 2878 cb3c bcfc 4e3d ce9c e0bd
000001e0: 7496 9c3d a216 d6bd 60c9 5c3d 18c9 e43d
000001f0: 0067 293d 6814 96bc 2846 653d 44e8 a8bd
00000200: 003f 723c 9a68 d73d 988e 4fbd 428e d3bd
00000210: 6ac7 e63d 5c22 f73d b095 95bd b0ab 363c
00000220: 9a38 afbd 8022 743b ca40 d1bd 4036 d53b
00000230: 584c 1f3d ae8f edbd 908c 7e3c a69e f6bd
00000240: 0483 5c3d 001a bebc e00d e93d bc83 f9bd
00000250: 003d 663a 3e56 8abd 4040 e43b 0088 fe38
00000260: d016 0dbd 8097 d8ba 2089 ec3c 64a0 79bd
00000270: e8fc de3d 6c8d 253d f4dc 233d 60fd 72bc
00000280: 6265 a03d 023e bfbd 40dd 34bd 6eaf cfbd
00000290: 488b 833d fe27 ccbd 1c6a b23d 100a 6c3c
000002a0: f8e0 e23c d8e4 ca3c 18e8 8dbd 183f 563d
000002b0: 6e32 923d b87d d53d 982b 303d fa99 dfbd
000002c0: 8608 cbbd 087e c33d 14ad c3bd 8029 a93d
000002d0: 4e4b f43d 38c8 a73c ac2e e53d 505a 1ebc
000002e0: aca4 883d 96c5 bd3d 2675 e53d 14d7 f43d
000002f0: 7ce7 a63d a8a1 c83d b8b1 2c3d 26fc ddbd
00000300: 0848 89bd 4083 4a3b 20c9 adbb a80e abbc
00000310: 722c 8fbd ce1d ecbd 129b f33d 405e 0a3d
00000320: 26d5 97bd 2897 b83c 74c6 7abd e83a 0abd
00000330: 2c57 063d f606 93bd a43f 4dbd 4cc1 cfbd
00000340: 12c7 c03d fc75 123d 984f 2fbd 869c d8bd
00000350: b6f8 b83d 8042 bcba c88f fdbd 6819 c23d
00000360: 1074 acbc e03e 083c eaf7 d8bd ca87 973d
00000370: f294 ec3d 8e22 e5bd 90ad 5b3c 464a b83d
00000380: c059 37bb 90bb e43c 602e e2bd 10e3 8f3c
00000390: 768f eabd ea72 ac3d 38a0 02bd 94ab 08bd
000003a0: be48 babd 62da b6bd e015 de3d 1092 2f3d
000003b0: 7814 b83c 1013 1e3d 26ad 943d a4cc d8bd
000003c0: 88f5 b0bc cc33 09bd 6c94 313d 00b6 40bd
000003d0: 5cc0 6d3d 80f1 b4bb b08a b1bc 0069 a7bc
000003e0: 74cd 6dbd 1c01 d6bd 8404 81bd e073 8abd
000003f0: c827 debc 8813 a6bd 1ecf 873d 8e51 eb3d

rnn.bias_ih_l0 f4 [192]
-0.013871047 0.15745588 -0.086286984 0.019902589 -0.12473767 -0.009720852 0.04761948 0.027162904
0.09226357 0.00040336262 0.041156955 -0.14249781 0.0791418 -0.05887211 -0.06466893 -0.08144346
0.0974227 0.07777036 -0.12427491 0.12441122 -0.088109806 -0.071041934 0.051384065 0.052828524
-0.1448537 0.03583485 0.10823321 0.0059584132 -0.07915701 -0.07813532 -0.073212534 0.015815409
-0.03757036 -0.0019487005 0.0905936 -0.15888572 -0.002285161 -0.050877433 -0.07784484 0.06281156
0.09939432 -0.07034964 0.04762839 0.071552426 -0.014149529 -0.074477896 0.038899336 0.05763057
0.12405419 0.13358122 -0.10098819 0.016718974 -0.0017303927 0.036108118 0.0807729 0.03867323
-0.059334386 0.049794022 0.017110724 -0.04422814 -0.007830948 0.10321556 -0.03443789 -0.13393539
0.09113732 0.047401108 0.076141834 0.03270714 0.058534004 -0.089196116 -0.015642501 -0.019236468
-0.065998204 -0.07858371 -0.0028042689 -0.0525089 -0.08438425 0.06404655 -0.11279546 -0.06462637
-0.10888712 0.12615606 -0.07696185 -0.110323615 -0.066358335 -0.087647915 -0.04224556 0.027434956
-0.046080176 -0.027788414 0.04084249 0.116163425 -0.05154909 0.06172271 -0.037289336 -0.014235289
-0.11233145 0.093017295 -0.11563969 -0.010491041 -0.0036627764 -0.0180454 -0.07260628 -0.071237385
0.039120898 -0.063997634 0.0025631685 0.008895698 -0.02245367 -0.09562606 -0.057421464 0.034145866
0.067253865 -0.02909199 -0.03985638 0.049436223 0.070128545 0.07264608 0.085762195 -0.034290716
0.032962102 0.06712498 0.015373671 0.12404535 -0.09516308 -0.12507685 0.027399525 -0.10375227
0.0970303 0.1306204 0.04143481 0.002514568 0.094865546 0.123733066 -0.052714102 -0.07322342
0.06995902 -0.020360889 0.10888554 -0.08214561 0.12854129 0.08578603 -0.018719492 -0.033990536
0.11060697 -0.08877004 -0.1134106 0.081953675 0.10741561 -0.040916044 -0.00414795 -0.08743253
0.010015678 -0.0073908707 -0.06453195 -0.02076774 0.12172485 0.037933175 -0.046805803 0.082292184
0.11169379 0.11144841 -0.054766618 0.13850291 -0.07067195 0.15234578 -0.011138356 0.042398617
-0.10664255 0.057621982 0.10823021 0.03144272 0.006044759 -0.015067344 -0.013760177 0.07441451
0.09948673 0.033850286 -0.02194514 -0.08739545 0.10900465 0.035514295 0.026810933 -0.13008371
0.0023146789 0.0059526614 0.026541982 0.016309144 0.04503921 -0.058735076 -0.01433754 0.04050164
00000000: 6343 63bc 1d3c 213e 3bb7 b0bd c10a a33c
00000010: 7776 ffbd 3544 1fbc a50c 433d bd84 de3c
00000020: aff4 bc3d 6a7a d339 3294 283d f2ea 11be
00000030: 1915 a23d e223 71bd 2571 84bd d4cb a6bd
00000040: 8d85 c73d 1146 9f3d d883 febd 4fcb fe3d
00000050: ea72 b4bd 6f7e 91bd 1978 523d b962 583d
00000060: 8754 14be 90c7 123d 60a9 dd3d cb3e c33b
00000070: 121d a2bd 6905 a0bd 74f0 95bd 518f 813c
00000080: 61e3 19bd 8a6b ffba 2389 b93d f0b2 22be
00000090: a4c2 15bb db64 50bd 1e6d 9fbd 59a3 803d
000000a0: 408f cb3d 7913 90bd fd15 433d 148a 923d
000000b0: 6dd3 67bc de87 98bd e954 1f3d 080e 6c3d
000000c0: 2010 fe3d 84c9 083e e5d2 cebd 3bf6 883c
000000d0: 58ce e2ba 1be6 133d 436c a53d d267 1e3d
000000e0: 9d08 73bd d1f4 4b3d ca2b 8c3c 9128 35bd
000000f0: 604d 00bc ae62 d33d bf0e 0dbd 5c26 09be
00000100: 34a6 ba3d aa27 423d 40f0 9b3d ecf7 053d
00000110: 5ac1 6f3d 74ac b6bd b424 80bc cc95 9dbc
00000120: 112a 87bd 7ff0 a0bd d3c7 37bb 9313 57bd
00000130: a6d1 acbd d62a 833d 4e01 e7bd d55a 84bd
00000140: 3600 dfbd 0e2f 013e 2d9e 9dbd 59f1 e1bd
00000150: e1e6 87bd c080 b3bd ae09 2dbd 46bf e03c
00000160: 91be 3cbd 87a4 e3bc 744a 273d 17e7 ed3d
00000170: 2325 53bd f4d0 7c3d b4bc 18bd 213b 69bc
00000180: 080e e6bd da7f be3d 80d4 ecbd 9de2 2bbc
00000190: 310b 70bb f2d3 93bc 9ab2 94bd e8e4 91bd
000001a0: 3c3d 203d 3111 83bd d5fa 273b 43bf 113c
000001b0: c2f0 b7bc 99d7 c3bd c532 6bbd 89dc 0b3d
000001c0: 65bc 893d 5352 eebc 7240 23bd a37d 4a3d
000001d0: 8e9f 8f3d 78c7 943d 17a4 af3d 6c74 0cbd
000001e0: 4503 073d d278 893d dae1 7b3c 7d0b fe3d
000001f0: dce4 c2bd 2514 00be f874 e03c 127c d4bd
00000200: d2b7 c63d 5bc1 053e 8cb7 293d 73cb 243b
00000210: de48 c23d c367 fd3d beea 57bd 29f6 95bd
00000220: ad46 8f3d e1cb a6bc 62ff de3d f53b a8bd
00000230: 54a0 033e 96b0 af3d 9f59 99bc a939 0bbd
00000240: e885 e23d 11cd b5bd d143 e8bd 54d7 a73d
00000250: b7fc db3d 9597 27bd 87eb 87bb d40f b3bd
00000260: cc18 243c 1e2f f2bb 5429 84bd 1c21 aabc
00000270: e14a f93d d15f 1b3d 71b7 3fbd ce88 a83d
00000280: b7bf e43d 103f e43d f652 60bd b5d3 0d3e
00000290: 75bc 90bd 8800 1c3e a77d 36bc 2caa 2d3d
000002a0: 6967 dabd 0705 6c3d cda7 dd3d 15ca 003d
000002b0: 1d13 c63b 05dd 76bc 5e72 61bc a266 983d
000002c0: b3bf cb3d 99a6 0a3d 4bc6 b3bc 63fc b2bd
000002d0: d43d df3d 7077 113d 9aa2 db3c aa34 05be
000002e0: deb1 173b 8b0e c33b 926e d93c c19a 853c
000002f0: 097b 383d 3194 70bd 00e8 6abc 0ce5 253d

rnn.bias_hh_l0 f4 [192]
0.07722581 0.022380106 -0.096828975 0.12875669 -0.007952845 0.13312134 -0.120896764 -0.011063107
0.14383082 0.052124444 0.025638856 -0.14272065 0.079455934 -0.124268495 0.08335035 0.12789865
-0.026710954 -0.09784233 0.06406689 -0.0121699525 0.0070273704 -0.049657244 -0.10568051 0.15100603
-0.054329455 0.020587506 0.024155917 -0.10465589 0.09889802 -0.10425141 0.0010648892 -0.111131415
-0.07562003 -0.08776096 -0.1289202 0.04392306 0.06510073 0.11841447 -0.12521005 0.04654278
-0.049677595 0.13217844 0.10064393 0.015348264 -0.06009005 0.09983807 0.079514824 0.08188204
-0.039089125 -0.043936625 0.05503388 0.09832371 -0.011339369 -0.009829876 -0.040632717 0.06355699
-0.09387874 -0.07806141 0.05478242 0.06485104 0.05339769 0.11535625 -0.009983183 -0.11925898
-0.109500855 0.042752154 0.044734266 0.05422212 -0.03688764 -0.072015814 -0.09017348 0.031870276
-0.04633091 -0.055812787 0.02919828 0.090683915 0.0734229 0.10315671 0.08202244 0.10446464
-0.044768617 0.10403619 0.022587996 0.042042784 -0.06592091 -0.04161605 -0.10492915 0.033962395
-0.0062593096 -0.075298086 0.022375474 0.057248916 -0.00014679569 -0.057395022 0.08953478 0.09195649
0.11393806 -0.13032736 0.012924564 0.12324485 -0.120908275 0.10772618 -0.017071687 -0.009825759
-0.099415965 0.00092490803 0.086282685 0.0050653373 -0.13234334 -0.0878511 -0.018970096 -0.040790785
-0.041050494 0.010449729 -0.09674073 -0.00012641912 -0.028211035 -0.082119286 -0.12245726 -0.1250684
0.09065723 -0.051754277 -0.013832209 0.06522153 0.11700755 -0.07060993 0.123631425 -0.13242628
0.031654693 0.07515515 0.04326167 0.12387517 -0.03584605 0.08737173 0.0026930836 -0.027020136
-0.10527874 -0.09461615 0.13615339 -0.0008318647 -0.087779604 0.016191842 -0.057069946 -0.05124884
0.00056930375 -0.018383551 -0.07431488 -0.042867806 0.07223114 0.027206907 -0.044701416 0.14558132
0.044604562 -0.026837595 -0.017169299 0.087541856 0.05898526 -0.05540571 0.040710133 0.02675565
0.09627465 -0.06022409 0.04113888 -0.07251582 -0.053862534 0.1581649 0.039231636 -0.0015339376
0.049170088 0.045816794 -0.028881656 0.013342903 0.10118454 -0.053353004 -0.056133073 0.05645357
0.036251046 -0.0238447 -0.009324028 0.024279777 0.09467626 -0.10333053 0.0761734 -0.115075536
0.10377823 -0.03679125 -0.014614205 -0.10606933 0.0059543103 0.05459002 -0.07020888 0.09790182
00000000: 9128 9e3d 7c56 b73c 454e c6bd cbd8 033e
00000010: a64c 02bc f650 083e b998 f7bd 0942 35bc
00000020: 6348 133e 7180 553d 9408 d23c 5d25 12be
00000030: cbb9 a23d 7b80 febd 97b3 aa3d ddf7 023e
00000040: eed0 dabc 8f61 c8bd 8035 833d 7b64 47bc
00000050: db45 e63b 6565 4bbd 066f d8bd 53a1 1a3e
00000060: 9088 5ebd 21a7 a83c a1e2 c53c d455 d6bd
00000070: 0c8b ca3d c381 d5bd c193 8b3a de98 e3bd
00000080: adde 9abd 05bc b3bd a803 04be abe8 333d
00000090: 8853 853d 4983 f23d 1037 00be a4a3 3e3d
000000a0: bc7a 4bbd c959 073e 681e ce3d 4977 7b3c
000000b0: fc20 76bd e777 cc3d abd8 a23d c5b1 a73d
000000c0: eb1b 20bd e4f6 33bd 356b 613d f15d c93d
000000d0: c3c8 39bc 7d0d 21bc 7e6e 26bd 2b2a 823d
000000e0: 7f43 c0bd a9de 9fbd 8863 603d 9fd0 843d
000000f0: 89b7 5a3d e63f ec3d 8190 23bc 0d3e f4bd
00000100: fc41 e0bd e21c 2f3d 473b 373d 0418 5e3d
00000110: 7e17 17bd 077d 93bd e0ac b8bd 688a 023d
00000120: 7bc5 3dbd f39b 64bd 3b31 ef3c 7db8 b93d
00000130: bf5e 963d d343 d33d 62fb a73d 8ff1 d53d
00000140: 4c5f 37bd ed10 d53d 760a b93c 0e35 2c3d
00000150: 8b01 87bd 9775 2abd 18e5 d6bd 271c 0b3d
00000160: e51a cdbb e235 9abd c54c b73c d77d 6a3d
00000170: 2bed 19b9 0b17 6bbd 035e b73d af53 bc3d
00000180: 5c58 e93d 8974 05be 8dc1 533c cc67 fc3d
00000190: c29e f7bd 8b9f dc3d ecd9 8bbc 38fc 20bc
000001a0: 999a cbbd 8775 723a fab4 b03d 21fb a53b
000001b0: 0385 07be 47eb b3bd 2d67 9bbc 3d14 27bd
000001c0: 9024 28bd 5735 2b3c 0120 c6bd 608f 04b9
000001d0: d41a e7bc 282e a8bd dfca fabd ee11 00be
000001e0: 7faa b93d 4bfc 53bd 7da0 62bc de92 853d
000001f0: a8a1 ef3d f09b 90bd 7932 fd3d c19a 07be
00000200: 5aa8 013d f1ea 993d 2633 313d 44b2 fd3d
00000210: 4fd3 12bd f3ef b23d 727e 303b 5559 ddbc
00000220: 619c d7bd 1dc6 c1bd cb6b 0b3e 7f11 5aba
00000230: cbc5 b3bd c1a4 843c 2dc2 69bd 4eea 51bd
00000240: 543d 153a 1a99 96bc 6632 98bd 2796 2fbd
00000250: eced 933d 05e1 de3c d518 37bd 4513 153e
00000260: 46b3 363d 84da dbbc a1a6 8cbc 2549 b33d
00000270: 879a 713d 19f1 62bd abbf 263d aa2e db3c
00000280: a52b c53d 89ad 76bd 3e81 283d 2d83 94bd
00000290: f69e 5cbd fbf5 213e 5ab1 203d 680e c9ba
000002a0: 9366 493d 64aa 3b3d 3999 ecbc 319c 5a3c
000002b0: d739 cf3d ae88 5abd cbeb 65bd dc3b 673d
000002c0: fa7b 143d f655 c3bc cfc3 18bc 62e6 c63c
000002d0: a1e5 c13d f59e d3bd cd00 9c3d b9ac ebbd
000002e0: ae89 d43d 6cb2 16bd 6b70 6fbc e03a d9bd
000002f0: 601c c33b c999 5f3d acc9 8fbd c080 c83d

rnn.weight_ih_l0_reverse f4 [192, 168]
0.113702044 0.03446203 0.07759455 0.12101934 -0.06854283 0.0919497 0.08345029 0.13439502
0.12151967 0.07202549 0.057968203 -0.12328659 0.026845155 0.007888007 -0.0835724 0.059884064
-0.122038394 0.122423366 0.12145627 -0.019211521 -0.038048234 -0.049962323 -0.060084 0.07695547
-0.054892268 -0.0776687 -0.043123733 0.1251663 0.10203701 0.021098068 -0.02578771 -0.08845408
-0.036535673 0.05150478 -0.042199127 0.02209685 0.014565911 -0.07641302 0.05248808 0.09697335
-0.027127424 -0.097787865 0.025266802 0.12898603 0.042332064 -0.039643425 0.04820664 0.09157387
0.11576308 0.09410017 0.10339151 -0.045748804 0.088088475 0.016152672 0.12066026 -0.03456461
-0.03492141 0.09312519 0.055237163 -0.068826 -0.01043785 0.03369008 -0.05917962 -0.10403523
-0.10640839 -0.009408397 -0.041326564 -0.02646293 -0.08434716 0.051670026 -0.11104334 0.09500693
-0.08609626 -0.050679576 -0.06437829 0.01858358 0.039544955 0.04699515 0.08799714 0.047679864
0.04059582 0.1190304 0.09778911 0.111595966 0.09484409 -0.10099349 0.0757362 -0.109064855
-0.085918084 -0.07289542 -0.048662968 -0.06056172 -0.02181193 -0.027006015 -0.054123353 0.11035233
0.015392485 0.07422942 -0.0036474818 0.08609471 -0.021700585 0.020546159 0.13401465 0.0403422
-0.084049866 -0.07331488 0.001086128 -0.060720146 0.04551287 -0.11506248 0.025541257 -0.106027365
-0.036188867 0.11220104 0.08332984 0.057561837 -0.0047530574 -0.086378545 -0.077645384 -0.03920009
0.01535626 0.1122287 0.05911364 -0.11203392 -0.10537892 0.05266305 -0.06143423 0.03169913
-0.043286722 -0.0019111561 -0.07104362 0.08355044 -0.05788546 0.083447166 0.030564036 -0.08310453
0.12241205 0.023298038 -0.02991026 -0.09102324 -0.09642005 0.052076746 0.053827606 -0.051082253
-0.005806007 -0.030973207 -0.028238004 0.026537834 0.032514542 -0.047955833 -0.0017684612 0.097729325
0.06483554 0.051737327 0.097152784 0.067201465 -0.0024604036 -0.095402226 0.016598249 0.13012831
0.03066124 -0.08182303 -0.014534063 0.08670195 0.12272929 0.104544446 -0.083728306 -0.06397814
-0.11288213 -0.09873283 0.0843115 -0.108507216 0.009951277 0.08682073 -0.013640246 0.095936626
-0.08673217 -0.08223332 -0.013383107 -0.07651949 -0.04759208 0.039345615 -0.11830645 0.05360215
-0.13084905 0.036765765 -0.053880647 -0.052884817 -0.024415808 -0.12924695 0.07309522 -0.12117267
-0.10242926 0.10192022 0.035953607 0.04150722 -0.008646977 -0.107428595 -0.058672205 -0.058895737
-0.008329294 -0.0288589 -0.07750043 -0.10952931 0.058040496 -0.04749129 -0.029962478 0.09026925
-0.02613908 0.05839288 -0.020360013 -0.054540716 -0.011445263 -0.09182238 -0.0074168723 -0.0060981517
-0.077019304 -0.00024192233 0.0039520194 0.054439027 0.07991226 -0.089423224 -0.054988384 0.020730218
-0.09214317 -0.067788556 -0.0751029 -0.07658655 -0.06544733 -0.14419672 -0.02710908 -0.059527487
0.049801163 0.03133651 -0.021513382 0.087329365 -0.123264484 0.03902048 0.0010338211 0.008646458
-0.06659056 0.06213302 0.08633567 -0.005095818 0.09449384 0.06133073 -0.03936001 0.07287474
-0.07152883 0.053397294 -0.05898222 0.03837966 -0.031231282 -0.030755075 0.04143485 -0.1470485
00000000: 9edc e83d 0f28 0d3d e4e9 9e3d fdd8 f73d
00000010: 2f60 8cbd 2050 bc3d fce7 aa3d d99e 093e
00000020: 4edf f83d 1a82 933d 1170 6d3d ae7d fcbd
00000030: 5fea db3c b33c 013c 0228 abbd fe48 753d
00000040: 44ef f9bd 1ab9 fa3d 11be f83d 7b61 9dbc
00000050: 77d8 1bbd 4ba5 4cbd a41a 76bd d49a 9d3d
00000060: b7d6 60bd c410 9fbd 83a2 30bd 982b 003e
00000070: c8f8 d03d dbd5 ac3c bf40 d3bc 6a27 b5bd
00000080: 6ea6 15bd adf6 523d fed8 2cbd 7404 b53c
00000090: dca5 6e3c 6e7e 9cbd befd 563d f799 c63d
000000a0: 553a debc 0145 c8bd 53fc ce3c ea14 043e
000000b0: 6364 2d3d 2561 22bd 5374 453d 158b bb3d
000000c0: 3215 ed3d 97b7 c03d eebe d33d 1963 3bbd
000000d0: bb67 b43d 9c52 843c ba1c f73d 9f93 0dbd
000000e0: c109 0fbd 6bb8 be3d 5d40 623d a5f4 8cbd
000000f0: 8403 2bbc 9cfe 093d 5466 72bd 6c10 d5bd
00000100: a4ec d9bd ad25 1abc 0b46 29bd c9c8 d8bc
00000110: 34be acbd f3a3 533d b16a e3bd fe92 c23d
00000120: 3c53 b0bd 6395 4fbd c4d8 83bd 983c 983c
00000130: e4f9 213d fd7d 403d d837 b43d f64b 433d
00000140: cd47 263d 36c6 f33d a845 c83d 6d8c e43d
00000150: 9e3d c23d add5 cebd 951b 9b3d 655d dfbd
00000160: d2f5 afbd 324a 95bd d252 47bd 910f 78bd
00000170: efae b2bc b83b ddbc 73b0 5dbd 6700 e23d
00000180: c330 7c3c 9805 983d 970a 6fbb 6c52 b03d
00000190: 6dc5 b1bc 6b50 a83c 233b 093e dd3d 253d
000001a0: 5622 acbd 1d26 96bd 685c 8e3a b0b5 78bd
000001b0: b46b 3a3d e1a5 ebbd e63b d13c e024 d9bd
000001c0: c73a 14bd a9c9 e53d d6a8 aa3d f6c5 6b3d
000001d0: 89bf 9bbb 3ce7 b0bd 8b04 9fbd 4690 20bd
000001e0: d398 7b3c 29d8 e53d 2521 723d 0a72 e5bd
000001f0: e7d0 d7bd 36b5 573d 76a2 7bbd f2d6 013d
00000200: 6b4d 31bd c27f faba 517f 91bd 7e1c ab3d
00000210: 4e19 6dbd 59e6 aa3d 6e61 fa3c b532 aabd
00000220: 2bb3 fa3d 87db be3c 5d06 f5bc 646a babd
00000230: e077 c5bd 6d4e 553d 567a 5c3d a03b 51bd
00000240: 5140 bebb 86bb fdbc 6353 e7bc df65 d93c
00000250: f82d 053d 566d 44bd b6cb e7ba 5026 c83d
00000260: 7fc8 843d 85ea 533d 0af8 c63d eca0 893d
00000270: b93e 21bb 3e62 c3bd 0df9 873c 5b40 053e
00000280: 482d fb3c d592 a7bd 4720 6ebc cb90 b13d
00000290: 7e59 fb3d 661b d63d bf79 abbd f906 83bd
000002a0: bf2e e7bd 7034 cabd 82ab ac3d 0839 debd
000002b0: ae0a 233c 11cf b13d 577b 5fbc 6c7a c43d
000002c0: a3a0 b1bd f169 a8bd d244 5bbc 40b6 9cbd
000002d0: eaef 42bd de28 213d a74a f2bd ee8d 5b3d
000002e0: 4bfd 05be b397 163d f4b1 5cbd c09d 58bd
000002f0: a903 c8bc 5059 04be f2b2 953d 6029 f8bd
00000300: 6fc6 d1bd 8cbb d03d 1744 133d 7a03 2a3d
00000310: 0dac 0dbc 8603 dcbd 4452 70bd a83c 71bd
00000320: 9777 08bc 8069 ecbc 8cb8 9ebd e750 e0bd
00000330: dfbb 6d3d 3a86 42bd df73 f5bc 16df b83d
00000340: a021 d6bc 5f2d 6f3d 0bca a6bc 1666 5fbd
00000350: ea84 3bbc 5f0d bcbd 3c09 f3bb 01d3 c7bb
00000360: 4cbc 9dbd 88ac 7db9 f17f 813b 75fb 5e3d
00000370: 0aa9 a33d 8623 b7bd 803b 61bd 6bd2 a93c
00000380: 8fb5 bcbd bad4 8abd 8dcf 99bd 69d9 9cbd
00000390: 4009 86bd 4ea8 13be dd13 debc 18d3 73bd
000003a0: 4efc 4b3d b65a 003d d53c b0bc bdd9 b23d
000003b0: 1772 fcbd f0d3 1f3d 4881 873a e0a9 0d3c
000003c0: a260 88bd 327f 7e3d c1d0 b03d d2fa a6bb
000003d0: fd85 c13d ee35 7b3d f637 21bd 5a3f 953d
000003e0: b57d 92bd 1fb7 5a3d 5797 71bd fe33 1d3d
000003f0: bfd8 ffbc 11f2 fbbc 97b7 293d e293 16be

rnn.weight_hh_l0_reverse f4 [192, 64]
-0.06250283 0.002880603 -0.0774152 -0.00087863207 0.0958491 -0.07504922 -0.08160415 -0.07942943
0.01700148 0.01650615 -0.052877024 -0.05573374 -0.014259145 0.06596251 0.068388596 -0.056444094
0.052692637 0.12074745 0.0043555796 -0.06376153 0.020211548 0.05663614 -0.09068179 0.03095296
0.014602363 0.059233993 0.06751104 -0.00019495189 -0.03851755 -0.0009717494 -0.08077708 0.10405719
-0.047670946 -0.11113307 -0.0025312752 -0.03745894 -0.093672246 0.009949565 -0.069820285 -0.01724346
-0.11762756 -0.0930444 -0.09810114 -0.07404083 -0.0661955 0.11726491 0.09240773 0.021434948
-0.0031248033 0.06579377 -0.0568185 0.09608556 0.07719675 -0.059649095 -0.071709976 -0.087787524
-0.08243458 -0.025602981 -0.068668544 -0.062483445 -0.09452841 0.06278165 0.038793236 -0.035483867
-0.11446972 -0.0812501 0.12156123 0.06310035 -0.09894475 0.0028363466 0.08007868 -0.060185775
-0.096054226 -0.03748016 -0.112832755 0.07016593 -0.05806464 0.025390476 -0.05146417 0.05293502
-0.015827566 -0.048236355 0.08921932 -0.056966454 0.103205204 0.076752886 -0.107604146 0.12141779
0.08270852 -0.08159894 -0.08222425 -0.04128541 -0.042703837 -0.01891251 0.06371181 0.071643025
0.1138816 0.07630794 0.07701065 -0.04099445 -0.012134269 -0.062577546 -0.006162137 -0.06152439
-0.10724424 -0.060910612 0.07799025 -0.0145314485 0.06383763 -0.023800671 0.04761289 0.032449245
0.08230342 0.11096622 -0.0072409958 0.01291655 -0.06874415 -0.07966578 -0.11581576 0.0022029579
0.06984691 -0.11707893 -0.02526611 0.082811385 -0.11036819 -0.030310407 -0.09731668 0.0043400824
-0.09573203 0.09622963 0.057014346 -0.073862866 -0.054221332 -0.009666786 0.05590336 -0.08461566
0.082780555 -0.112652615 -0.03310883 0.013664216 0.06399663 -0.0021902472 0.07778628 0.06436087
0.08757667 -0.03251347 -0.10023992 0.120926276 -0.007365778 -0.07640587 -0.10768272 -0.05143127
-0.0012544394 0.056326732 0.06442146 0.022758856 0.06938091 -0.08938944 -0.06546293 -0.07357195
-0.08002283 0.099474564 -0.010039583 -0.11782049 -0.0040047616 0.076502964 -0.07857388 -0.085562825
-0.07911174 -0.036740854 -0.11261363 0.10973254 0.013860673 0.10159077 -0.016598672 0.03901978
-0.0053936094 -0.044668168 0.004062861 -0.014522612 0.11323807 -0.04359238 0.07242915 -0.05975744
-0.066944 -0.025628656 0.06304906 0.11821872 0.057044744 0.09011781 -0.08349094 -0.04146701
0.077320635 -0.07084757 0.06673139 0.0872138 0.0910161 0.030889928 -0.08093047 -0.05236301
-0.063198626 -0.066076905 -0.078985974 -0.074140415 -0.11127454 -0.10885376 -0.12109052 -0.10555506
-0.11242455 -0.035101444 0.11687195 0.084453255 -0.118502945 -0.009565458 0.070260525 -0.060685143
0.023524389 -0.068555206 -0.10477285 -0.09200755 -0.040553927 0.053184405 0.032983005 0.008461252
0.1179311 -0.07615413 -0.09687325 0.0058032423 0.03346482 -0.07311529 -0.00537464 -0.03938867
0.11597186 0.049063787 -0.012446597 0.060008332 0.08612409 0.09828812 -0.052665472 -0.0009622872
-0.04839602 0.076100335 0.05372666 -0.066938266 0.087728366 0.016878292 0.11140996 0.07204279
0.07027511 0.0059497356 -0.09206283 0.093766004 0.010922134 0.11702201 0.11128175 -0.08020596
00000000: 7c01 80bd 80c8 3c3b dc8b 9ebd 0054 66ba
00000010: 884c c43d 68b3 99bd 1420 a7bd e6ab a2bd
00000020: b046 8b3c e837 873c 9495 58bd 1049 64bd
00000030: 309f 69bc 5a17 873d 520f 8c3d ec31 67bd
00000040: 3cd4 573d 704a f73d 40b9 8e3b 6895 82bd
00000050: b092 a53c 4cfb 673d 60b7 b9bd 1091 fd3c
00000060: c03e 6f3c 589f 723d 3a43 8a3d 006c 4cb9
00000070: 94c4 1dbd 00bd 7eba 746e a5bd f01b d53d
00000080: 9c42 43bd bc99 e3bd c0e3 25bb 8c6e 19bd
00000090: 3cd7 bfbd 8003 233c f0fd 8ebd 2842 8dbc
000000a0: b8e6 f0bd 108e bebd 40e9 c8bd b8a2 97bd
000000b0: 8291 87bd 9628 f03d 4440 bd3d 5898 af3c
000000c0: 80c9 4cbb e2be 863d 84ba 68bd 82c8 c43d
000000d0: 5419 9e3d 9c52 74bd aedc 92bd f2c9 b3bd
000000e0: 76d3 a8bd 58bd d1bc 18a2 8cbd a4ee 7fbd
000000f0: 1c98 c1bd aa93 803d a8e5 1e3d 8857 11bd
00000100: 1a6f eabd 7466 a6bd 18f5 f83d c23a 813d
00000110: 8ca3 cabd 00e2 393b 4a00 a43d 5c85 76bd
00000120: 14b8 c4bd cc84 19bd dc14 e7bd 28b3 8f3d
00000130: 30d5 6dbd b0ff cf3c 18cc 52bd 64d2 583d
00000140: d0a8 81bc 7c93 45bd 9eb8 b63d a855 69bd
00000150: 405d d33d 9e30 9d3d 905f dcbd e4a9 f83d
00000160: 1663 a93d 581d a7bd 3065 a8bd e41a 29bd
00000170: 38ea 2ebd 68ee 9abc 567b 823d 94b9 923d
00000180: c23a e93d 5647 9c3d c2b7 9d3d cce9 27bd
00000190: d0ce 46bc a828 80bd c0eb c9bb 0001 7cbd
000001a0: dea2 dbbd 687d 79bd 5ab9 9f3d 5015 6ebc
000001b0: 4ebd 823d a0f9 c2bc bc05 433d 80e9 043d
000001c0: b28e a83d 4242 e33d e045 edbb f09f 533c
000001d0: bcc9 8cbd d027 a3bd d030 edbd 805f 103b
000001e0: e60b 8f3d 14c7 efbd e0fa cebc 0499 a93d
000001f0: b808 e2bd 884d f8bc f84d c7bd 4037 8e3b
00000200: 280f c4bd 0a14 c53d e087 693d 6a45 97bd
00000210: 3017 5ebd 7061 1ebc ecfa 643d fa4a adbd
00000220: da88 a93d 6ab6 e6bd 209d 07bd e0df 5f3c
00000230: aa10 833d 408a 0fbb 6a4e 9f3d a2cf 833d
00000240: 665b b33d d82c 05bd 964a cdbd 32a8 f73d
00000250: a05c f1bb ae7a 9cbd c288 dcbd 98a9 52bd
00000260: 006c a4ba dcb6 663d 66ef 833d c870 ba3c
00000270: 9417 8e3d d011 b7bd 6e11 86bd e4ac 96bd
00000280: 02e3 a3bd 52b9 cb3d 107d 24bc de4b f1bd
00000290: 603a 83bb 96ad 9c3d 58eb a0bd 903b afbd
000002a0: 5605 a2bd 947d 16bd faa1 e6bd 74bb e03d
000002b0: e017 633c d20e d03d f0f9 87bc 34d3 1f3d
000002c0: e0bc b0bb f8f5 36bd c021 853b 40f0 6dbc
000002d0: 5ce9 e73d ec8d 32bd bc55 943d 38c4 74bd
000002e0: f019 89bd 30f3 d1bc de1f 813d a81c f23d
000002f0: c0a7 693d b08f b83d 4cfd aabd 50d9 29bd
00000300: 485a 9e3d 8818 91bd 78aa 883d 269d b23d
00000310: a666 ba3d e00c fd3c e0be a5bd 987a 56bd
00000320: 486e 81bd 5453 87bd 66c3 a1bd eed6 97bd
00000330: e8e3 e3bd b8ee debd 4efe f7bd 402d d8bd
00000340: d83e e6bd 88c6 0fbd 905a ef3d d4f5 ac3d
00000350: acb1 f2bd 70b8 1cbc c0e4 8f3d fc90 78bd
00000360: 38b6 c03c ac66 8cbd 2693 d6bd 746e bcbd
00000370: e01b 26bd e4d7 593d 3019 073d 10a1 0a3c
00000380: dc85 f13d b2f6 9bbd 7c65 c6bd 2029 be3b
00000390: 6812 093d 78bd 95bd c01d b0bb 0456 21bd
000003a0: a882 ed3d 1cf7 483d d0ec 4bbc 4ccb 753d
000003b0: d461 b03d 484b c93d c0b7 57bd 0042 7cba
000003c0: e83a 46bd 7eda 9b3d 7c10 5c3d ee16 89bd
000003d0: eeaa b33d 5844 8a3c e82a e43d 2c8b 933d
000003e0: 66ec 8f3d 00f6 c23b 708b bcbd 6408 c03d
000003f0: c0f2 323c 3ca9 ef3d b0e7 e33d 0643 a4bd

rnn.bias_ih_l0_reverse f4 [192]
0.017592402 -0.11415287 -0.036086783 0.09747162 -0.063090414 0.01691537 0.078005224 0.006642411
0.02560026 -0.0065456848 0.07522415 -0.013835115 -0.09996936 0.11153524 0.1009555 0.035980627
-0.05940252 -0.010870893 0.08216776 -0.13196126 0.034709923 -0.0043665892 -0.07763861 0.113822535
-0.069605224 0.021767657 0.08673835 -0.017374381 0.07866276 -0.04408571 -0.11253864 -0.068082
0.121178105 0.06372711 0.14021948 0.021128517 0.031234581 -0.10203039 -0.07203223 -0.03994016
0.07448574 -0.02366853 -0.12303968 0.029502597 0.04381372 -0.12752019 0.08699508 -0.1028917
0.079662345 0.08368522 0.057921916 -0.1010575 0.06829627 -0.09377639 -0.030116454 0.036347613
-0.06042523 0.0025921415 -0.10443189 0.024451677 0.14921293 0.0034121347 0.06199016 -0.009589219
-0.0005667483 0.044281732 -0.07190415 0.011933594 -0.10252735 0.08189696 -0.11383599 0.11752962
-0.081504785 0.04118822 0.0042945356 -0.062063254 0.12452294 0.0057917917 0.06243432 0.004760164
-0.055732645 0.039726514 -0.091513306 -0.1300796 0.03777185 -0.025486117 0.062872425 0.025474336
0.050894544 0.0021798275 -0.03247603 0.025623031 0.117615655 0.06385645 -0.07832957 0.011530988
-0.0519847 -0.03819636 -0.0291281 0.0515934 0.048003692 0.002562374 0.04524813 0.061626043
-0.11821335 0.023015978 0.06286831 -0.02999454 0.072828196 0.037902772 0.035178423 0.02271351
-0.09784434 0.049834292 -0.101244524 -0.09891774 0.10793339 -0.08519565 -0.09913624 0.09812975
-0.052913897 0.08197456 0.0034224268 -0.04941067 -0.10618743 -0.018746952 0.080770805 0.0023271712
0.03017389 0.014871288 -0.114212446 -0.10500888 -0.043533497 -0.0015000931 0.10036502 -0.13661824
0.07848462 0.04356916 0.1252612 0.08857149 -0.026052259 0.076693416 -0.050905075 0.15207839
0.026623966 -0.09153896 -0.04941285 0.03629495 -0.062822364 -0.08468261 -0.10052501 0.013473073
0.071444824 0.11424934 -0.0030846095 0.034376107 -0.012891163 0.13018174 -0.096501045 0.026947685
-0.14179383 -0.04910949 0.028521398 -0.042628136 0.10068581 -0.109580785 -0.07491693 -0.027636137
0.1174999 0.12857366 0.08492172 -0.16283992 -0.0305086 -0.10549494 -0.024106048 -0.11579758
-0.06627848 0.029726291 0.09350096 -0.08238812 -0.12167052 0.064159796 -0.07989726 -0.15246573
0.064460054 -0.013708545 -0.02868885 -0.025172085 -0.12226924 -0.084301986 -0.11387687 0.12602955
00000000: f11d 903c fbc8 e9bd bccf 13bd 339f c73d
00000010: 8c35 81bd 1a92 8a3c 34c1 9f3d 95a8 d93b
00000020: a3b7 d13c 2f7d d6bb 1f0f 9a3d aeac 62bc
00000030: bcbc ccbd 976c e43d c2c1 ce3d 6c60 133d
00000040: 0f50 73bd d41b 32bc 9247 a83d da20 07be
00000050: fe2b 0e3d 9b15 8fbb fe00 9fbd ca1b e93d
00000060: 2f8d 8ebd 1652 b23c e0a3 b13d b854 8ebc
00000070: f119 a13d 3893 34bd a97a e6bd 936e 8bbd
00000080: 3a2c f83d 5c83 823d b295 0f3e b615 ad3c
00000090: aadf ff3c 4ff5 d0bd a285 93bd 4b98 23bd
000000a0: fb8b 983d 81e4 c1bc 3afc fbbd 6eaf f13c
000000b0: 0476 333d a794 02be 7a2a b23d e2b8 d2bd
000000c0: 0326 a33d 2863 ab3d 883f 6d3d 3cf7 cebd
000000d0: eade 8b3d d60d c0bd c8b6 f6bc 3ce1 143d
000000e0: 7280 77bd ebe0 293b 63e0 d5bd e24e c83c
000000f0: 46cb 183e 1f9e 5f3b 65e9 7d3d 191c 1dbc
00000100: d691 14ba c360 353d 7c42 93bd 1f85 433c
00000110: dcf9 d1bd 98b9 a73d d822 e9bd 5fb3 f03d
00000120: fbeb a6bd fbb4 283d 2db9 8c3b 0a36 7ebd
00000130: e205 ff3d 12c9 bd3b 21bb 7f3d 26fb 9b3b
00000140: ea47 64bd 45b8 223d 546b bbbd 9633 05be
00000150: a8b6 1a3d 43c8 d0bc 42c3 803d 8eaf d03c
00000160: cc76 503d 70db 0e3b 9605 05bd 64e7 d13c
00000170: 7ae0 f03d 2cc7 823d 416b a0bd 78ec 3c3c
00000180: e9ed 54bd c973 1cbd 0e9e eebc 9a53 533d
00000190: 859f 443d 81ed 273b 1a56 393d 976b 7c3d
000001a0: d719 f2bd 018c bc3c 1ac1 803d 1cb7 f5bc
000001b0: f326 953d f03f 1b3d 4017 103d af11 ba3c
000001c0: 9d62 c8bd 0b1f 4c3d 4a59 cfbd 6295 cabd
000001d0: 2e0c dd3d 0f7b aebd f107 cbbd 40f8 c83d
000001e0: 3ebc 58bd 47e2 a73d cb4a 603b d862 4abd
000001f0: cc78 d9bd 3593 99bc 2a6b a53d 7483 183b
00000200: 3c2f f73c b4a6 733c 37e8 e9bd e50e d7bd
00000210: 2e50 32bd c69e c4ba 2d8c cd3d a7e5 0bbe
00000220: 8bbc a03d 9375 323d 7944 003e f864 b53d
00000230: 8c6b d5bc 7011 9d3d d781 50bd 70ba 1b3e
00000240: 811a da3c c778 bbbd 2165 4abd 03aa 143d
00000250: 03a9 80bd 146e adbd 0ee0 cdbd 2abe 5c3c
00000260: aa51 923d 8ffb e93d 2927 4abb f6cd 0c3d
00000270: 7535 53bc 5d4e 053e 57a2 c5bd 64c1 dc3c
00000280: 6732 11be 0827 49bd b5a5 e93c d79a 2ebd
00000290: 5d34 ce3d e46b e0bd 0c6e 99bd 2e65 e2bc
000002a0: caa3 f03d d0a8 033e 70eb ad3d 82bf 26be
000002b0: 2ced f9bc bb0d d8bd 0c7a c5bc 4827 edbd
000002c0: 03bd 87bd 8d84 f33c 6e7d bf3d 1abb a8bd
000002d0: 652e f9bd 3666 833d 2da1 a3bd fa1f 1cbe
000002e0: a203 843d ce99 60bc e104 ebbc b035 cebc
000002f0: 4c68 fabd 85a6 acbd 4738 e9bd e40d 013e

rnn.bias_hh_l0_reverse f4 [192]
-0.13120249 -0.0842948 0.038751803 0.05406365 -0.07078166 -0.031391807 -0.09978144 0.0719262
0.065528154 0.095192544 -0.0719497 -0.07982799 0.12773642 -0.112891205 0.13011397 0.13161787
0.020111078 -0.12384091 -0.118166 -0.06294847 -0.02400671 -0.11081729 0.06741741 0.009155147
0.014935716 -0.06625942 -0.01707311 0.097431146 0.03097958 0.09107633 -0.11699835 -0.12312982
0.01926759 0.14232382 0.022334266 0.041351117 0.042563286 0.07281224 -0.084568255 0.030810434
-0.007378034 0.0060195248 -0.017435737 0.1746147 -0.12933712 0.010757609 0.11347094 0.029273327
0.070420764 0.076324075 -0.07321015 -0.07237202 0.06738083 0.09011128 -0.02093129 0.06441934
0.015774215 -0.029943733 0.021855768 0.09837924 0.14395632 -0.0024227218 0.048656266 -0.09409569
-0.11731228 -0.11243022 0.09799132 -0.035921894 0.008368038 0.041457936 -0.09296185 0.08327682
-0.056519438 -0.058165457 0.01442731 -0.08420302 -0.09490852 -0.04280045 0.024822831 -0.08284677
0.08872697 -0.020103758 0.08958541 -0.08636096 -1.9795421e-05 -0.027370505 0.0155321425 0.0760352
-0.03152929 -0.08013882 -0.07241792 0.13605583 -0.036282532 -0.037341613 0.1009972 -0.014532509
0.09974625 -0.0053109974 0.038206168 0.06758239 -0.10731965 0.05241136 0.1323149 0.040217068
-0.007513115 -0.124476455 0.026256057 -0.097085774 0.0184417 -0.07000614 -0.04678858 0.0715189
-0.009324545 -0.036848202 0.023004727 0.09486103 0.07933304 -0.1147464 0.03705063 -0.13168685
0.02303104 0.10162733 -0.08650896 0.07118948 0.0014068277 0.06890002 0.06794591 -0.049847785
-0.0002533841 0.021904508 0.0013299535 -0.016743416 -0.035881445 -0.06923459 -0.08145409 -0.0014098203
0.029066004 0.0920853 -0.027949788 0.09105737 0.12449315 -0.038737874 0.16637814 0.09355255
-0.060218535 -0.075430386 0.1077622 0.0028593347 0.167077 0.112522066 -0.0492924 0.12780571
0.080821306 -0.044140764 -0.10377383 0.07825086 0.08429383 0.096404366 -0.10323492 -0.11004301
-0.028414492 -0.1270287 0.14593059 0.07510295 0.07418932 -0.05944931 -0.03719713 -0.09572156
-0.093248434 0.020818124 -0.005988932 -0.057118665 0.0320192 -0.076115265 0.026666714 0.020810548
0.046007734 -0.026162762 -0.002391083 -0.00612688 0.004010248 0.08231421 0.06917461 0.039833177
-0.15415482 0.11878234 -0.00088253804 -0.037733875 -0.08203074 0.04639183 -0.08298314 -0.016881172
00000000: f259 06be c1a2 acbd 36ba 1e3d d971 5d3d
00000010: faf5 90bd b294 00bd 365a ccbd 0b4e 933d
00000020: a033 863d 4ff4 c23d 5d5a 93bd db7c a3bd
00000030: 56cd 023e 8133 e7bd 993c 053e d6c6 063e
00000040: fdbf a43c 4ea0 fdbd 0401 f2bd 21eb 80bd
00000050: b8a9 c4bc 2df4 e2bd 2412 8a3d 78ff 153c
00000060: efb4 743c 05b3 87bd e8dc 8bbc fb89 c73d
00000070: e3c8 fd3c 3a86 ba3d d59c efbd 7d2b fcbd
00000080: 11d7 9d3c 56bd 113e 5af6 b63c ca5f 293d
00000090: d756 2e3d 951e 953d 1f32 adbd 2a66 fc3c
000000a0: 6fc3 f1bb 6f3f c53b 64d5 8ebc 32ce 323e
000000b0: f370 04be af40 303c 7463 e83d 9ece ef3c
000000c0: c338 903d cc4f 9c3d 34ef 95bd c837 94bd
000000d0: f6fe 893d 438c b83d 1978 abbc 49ee 833d
000000e0: ed38 813c 8f4c f5bc de0a b33c 0e7b c93d
000000f0: 4969 133e 87c6 1ebb cb4b 473d 3eb5 c0bd
00000100: 6c41 f0bd d141 e6bd acaf c83d d622 13bd
00000110: 181a 093c cccf 293d c862 bebd 0a8d aa3d
00000120: ed80 67bd e73e 6ebd 8660 6c3c a272 acbd
00000130: 665f c2bd 864f 2fbd 4059 cb3c 91ab a9bd
00000140: 7cb6 b53d a3b0 a4bc 8e78 b73d 04de b0bd
00000150: 580e a6b7 1c38 e0bc 877a 7e3c 58b8 9b3d
00000160: db24 01bd d21f a4bd d94f 94bd 3852 0b3e
00000170: fe9c 14bd 85f3 18bd 9fd7 ce3d c319 6ebc
00000180: c347 cc3d e007 aebb 127e 1c3d a368 8a3d
00000190: 68ca dbbd 4bad 563d 8f7d 073e a7ba 243d
000001a0: 9430 f6bb 83ed febd f116 d73c e8d4 c6bd
000001b0: 0c13 973c 615f 8fbd 62a5 3fbd 8078 923d
000001c0: fac5 18bc 24ee 16bd 6974 bc3c 8046 c23d
000001d0: 5c79 a23d 2900 ebbd 67c2 173d ebd8 06be
000001e0: 97ab bc3c fd21 d03d 9c2b b1bd cacb 913d
000001f0: 4e65 b83a 741b 8d3d 3a27 8b3d 312d 4cbd
00000200: a3d8 84b9 1571 b33c d651 ae3a 7d29 89bc
00000210: 6cf8 12bd ddca 8dbd 67d1 a6bd b8c9 b8ba
00000220: d41b ee3c 3897 bc3d f4f6 e4bc 497c ba3d
00000230: 44f6 fe3d 9bab 1ebd 085f 2a3e 7b98 bf3d
00000240: b6a7 76bd 3f7b 9abd 6eb2 dc3d ad63 3b3b
00000250: 3c16 2b3e f871 e63d d4e6 49bd 80df 023e
00000260: a485 a53d f2cc 34bd 6087 d4bd fd41 a03d
00000270: 3ea2 ac3d a76f c53d d46c d3bd 3b5e e1bd
00000280: 82c5 e8bc d013 02be d46e 153e 93cf 993d
00000290: 92f0 973d 1f81 73bd 055c 18bd aa09 c4bd
000002a0: 09f9 bebd c58a aa3c ce3e c4bb 43f5 69bd
000002b0: 9126 033d 52e2 9bbd 2774 da3c e27a aa3c
000002c0: 9b72 3c3d 4a53 d6bc b7b3 1cbb ffc3 c8bb
000002d0: 6668 833b 5a94 a83d 6bab 8d3d 1d28 233d
000002e0: c3da 1dbe 2844 f33d 205a 67ba d68e 1abd
000002f0: bcff a7bd 5c05 3e3d 11f3 a9bd 624a 8abc
